saved_models/pointnet-latest.pth (torch, 951625 bytes, 10 tensors)

conv1.mlp.0.weight f4 [256, 6]
0.14181486 0.17097598 -0.03392997 -0.33326858 -0.53000706 -0.14011833 -0.2903227 -0.29924548
-0.072162256 0.25368288 0.025817215 -0.071852006 -0.15910167 0.082732186 -0.16142742 0.36287957
-0.20172451 0.29508653 0.018449016 0.107142985 -0.056995504 -0.11390235 -0.30395877 0.24355493
0.10008889 0.024970228 0.24718451 0.21105573 0.42232025 -0.1309069 -0.15769525 -0.1122985
0.13663583 0.3156965 -0.38381994 -0.27989292 -0.18544102 0.24862073 0.31414673 -0.031282
-0.0018588942 0.2093785 -0.026981622 0.007844048 0.19083272 -0.021949971 -0.0024537249 0.031421326
0.119864024 0.1743316 0.15979588 -0.27106258 -0.2274532 0.13409728 -0.110960156 0.046625707
-0.2699913 -0.0353078 0.05023011 -0.1121604 0.30500942 0.18844275 0.21281973 0.1670365
0.10884127 0.17957442 -0.13320363 -0.23223995 -0.11471244 -0.19392201 -0.022467455 -0.22676085
0.007059476 -0.1349013 0.09713864 0.1631174 -0.049481407 -0.11841809 0.13782626 0.049866274
-0.19004676 0.111440726 -0.13606074 -0.027399685 0.031783406 -0.16017516 -0.025440985 0.24942672
0.30890664 0.21321344 -0.2314681 -0.13074178 -0.18387285 -0.3243662 -0.31816855 -0.30293334
0.055188954 -0.2431112 -0.06133538 -0.0992594 0.09426096 0.18657584 -0.10462754 -0.044650123
-0.055190284 -0.1724069 -0.16057664 -0.04930604 -0.13933164 -0.07274114 0.24420425 0.055833705
-0.007497635 -0.27874738 0.095390856 0.15064994 0.080722444 0.28066012 -0.29363647 -0.13728763
0.019081643 -0.19052888 0.06858829 0.27109382 -0.3325803 0.18818437 0.211021 0.13770369
-0.002763077 -0.09014128 0.051798776 -0.44765693 0.037292894 0.032898825 0.17467688 -0.12171451
0.22559229 -0.18439011 0.029058492 -0.21440339 -0.011684907 0.010601148 -0.28331408 -0.025554204
-0.29561636 -0.035212867 0.10070359 0.20488296 -0.13383059 -0.052982666 0.23845595 -0.1360732
-0.16641657 0.13150728 0.29118136 0.14452298 0.06473627 0.029475484 -0.045337845 -0.092463024
-0.062953085 0.3419476 -0.026531842 0.07839659 -0.10592498 -0.21323068 0.31776792 -0.11215849
-0.094583794 -0.08378717 -0.06306883 0.15643981 0.31812876 0.21292192 0.22818409 -0.14591052
-0.12126945 -0.301864 0.41833293 -0.2587255 -0.119706966 -0.09079583 0.21605507 -0.09948385
0.24382675 -0.22704989 0.05166269 0.22523683 0.076938 0.29644808 -0.22504228 0.30243912
0.06109798 0.15438402 0.06075886 0.0662989 0.040610846 0.008319233 0.06748613 0.19766608
-0.05224408 0.054436482 -0.053255063 0.4014144 -0.06566034 -0.21301746 0.12861519 -0.021604292
-0.32223982 -0.2511297 0.39138818 -0.1312186 0.21188514 0.2627515 -0.13312776 0.16292177
-0.0408453 -0.19511169 0.17654158 -0.2599345 0.28931385 0.13685286 -0.0025281329 0.29773152
0.011079074 -0.015421106 0.21197817 -0.055210073 -0.21145722 -0.08843528 -0.0053085033 0.21479233
0.1365464 -0.28215918 0.17701538 0.029992627 0.002415312 -0.11323045 0.096129544 0.20295791
-0.008381956 -0.0037048466 0.0074198483 -0.008627814 0.005265128 0.011214744 -0.04976707 0.09751566
0.032823633 0.0063470835 -0.29334223 -0.39838165 0.048552524 0.12860076 0.22395742 -0.006433704
00000000: ea37 113e 5414 2f3e 27fa 0abd 2ea2 aabe
00000010: 8bae 07bf 2e7b 0fbe 2da5 94be b436 99be
00000020: cec9 93bd b9e2 813e a07e d33c 2527 93bd
00000030: 8ceb 22be 7e6f a93d 3b4d 25be 5acb b93e
00000040: df90 4ebe 9515 973e 6422 973c c86d db3d
00000050: 1e74 69bd a345 e9bd 7ca0 9bbe 7766 793e
00000060: 67fb cc3d 5d8e cc3c f01d 7d3e fe1e 583e
00000070: 5c3a d83e 750c 06be dd7a 21be c2fc e5bd
00000080: 43ea 0b3e f9a2 a13e 0c84 c4be 204e 8fbe
00000090: 40e4 3dbe 6f96 7e3e d7d7 a03e 8e21 00bd
000000a0: 24a6 f3ba 5167 563e 9008 ddbc 5284 003c
000000b0: a769 433e 6dd0 b3bc acce 20bb a6b3 003d
000000c0: 457b f53d fc83 323e 88a1 233e b7c8 8abe
000000d0: 7ee9 68be cc50 093e 143f e3bd 99fa 3e3d
000000e0: 4d3c 8abe e99e 10bd 16be 4d3d 5ab4 e5bd
000000f0: 322a 9c3e 23f7 403e 6aed 593e 9e0b 2b3e
00000100: 2ce8 de3d 5be2 373e 8866 08be 4fd0 6dbe
00000110: 5bee eabd 7e93 46be ab0d b8bc ff33 68be
00000120: 2d53 e73b 9123 0abe a0f0 c63d 3f08 273e
00000130: 04ad 4abd 2f85 f2bd 5422 0d3e 9440 4c3d
00000140: 9e9b 42be 093b e43d 8253 0bbe 4e75 e0bc
00000150: 512f 023d f504 24be 9d69 d0bc b869 7f3e
00000160: 0329 9e3e a054 5a3e f905 6dbe 2ce1 05be
00000170: 2a49 3cbe 5413 a6be fde6 a2be 141a 9bbe
00000180: d00d 623d 24f2 78be cf3a 7bbd 8348 cbbd
00000190: e40b c13d bd0d 3f3e f746 d6bd 0ce3 36bd
000001a0: 350f 62bd 6f8b 30be 346e 24be 21f5 49bd
000001b0: f4ac 0ebe 4ff9 94bd ae10 7a3e e2b1 643d
000001c0: b9ae f5bb fab7 8ebe 485c c33d fa43 1a3e
000001d0: cf51 a53d afb2 8f3e 8557 96be 2195 0cbe
000001e0: 1b51 9c3c 011a 43be 0478 8c3d cfcc 8a3e
000001f0: f747 aabe 67b3 403e e415 583e 3202 0d3e
00000200: bd14 35bb fe9b b8bd f42a 543d 4a33 e5be
00000210: 6fc0 183d ebc0 063d 7fde 323e 7545 f9bd
00000220: aa01 673e c3d0 3cbe 130c ee3c 908c 5bbe
00000230: 0d72 3fbc 70b0 2d3c 8b0e 91be 0d57 d1bc
00000240: 075b 97be 5e3b 10bd af3d ce3d d7cc 513e
00000250: e30a 09be 5a04 59bd cc2d 743e c656 0bbe
00000260: 1b69 2abe d8a9 063e b915 953e d5fd 133e
00000270: 7394 843d 9276 f13c 2db4 39bd 415d bdbd
00000280: 8ced 80bd c113 af3e 4e59 d9bc 648e a03d
00000290: 32ef d8bd 2559 5abe 7ab2 a23e 5ab3 e5bd
000002a0: 26b5 c1bd 9c98 abbd 3b2a 81bd c231 203e
000002b0: c6e1 a23e 3408 5a3e 17a9 693e 9169 15be
000002c0: 1e5c f8bd eb8d 9abe bc2f d63e ab77 84be
000002d0: ed28 f5bd 2af3 b9bd 8a3d 5d3e 30be cbbd
000002e0: b8ad 793e c47f 68be 429c 533d 7ca4 663e
000002f0: ac91 9d3d 0bc8 973e 7c71 66be 4dd9 9a3e
00000300: e041 7a3d d816 1e3e 48de 783d b8c7 873d
00000310: 8f57 263d 644d 083c 2b36 8a3d fa68 4a3e
00000320: e3fd 55bd caf8 5e3d fb21 5abd 3086 cd3e
00000330: ee78 86bd 4021 5abe b3b3 033e 7cfb b0bc
00000340: 9efc a4be 1294 80be 0864 c83e 2b5e 06be
00000350: 6bf8 583e 5d87 863e a552 08be f7d4 263e
00000360: 674d 27bd 5ccb 47be 51c7 343e 2316 85be
00000370: f220 943e 2823 0c3e 08af 25bb 4470 983e
00000380: 0185 353c cea8 7cbc ce10 593e f523 62bd
00000390: 3e88 58be 8e1d b5bd f4f2 adbb 85f2 5b3e
000003a0: d2d2 0b3e 2b77 90be 8543 353e 19b3 f53c
000003b0: 364a 1e3b 5ee5 e7bd 91df c43d 33d4 4f3e
000003c0: 7954 09bc 03cd 72bb 3322 f33b ad5b 0dbc
000003d0: 1887 ac3b 0cbe 373c 8ed8 4bbd 4ab6 c73d
000003e0: 1372 063d 32fb cf3b f430 96be aef8 cbbe
000003f0: 03df 463d ebaf 033e 1855 653e d2d1 d2bb

conv1.mlp.0.bias f4 [256]
0.6135723 -0.87517774 -0.47607002 1.0351474 -1.0022631 -0.3713352 -0.97118556 -0.77811027
0.9625576 0.5248098 0.095689796 1.0636897 -0.8497079 -0.66475344 -0.592533 1.1576052
-0.7731728 0.42441338 -0.80455285 0.45734626 1.0110717 -0.8291312 -0.73101723 -0.14873563
-0.8114185 -0.88266087 1.0832742 -0.7326245 -0.30738962 -0.67885625 -0.59400135 -0.79139274
-0.7648492 -0.8483544 -0.73941714 -1.2098819 -0.7495572 -1.0098512 -0.5202508 -0.82406527
-0.09606595 1.2031658 -0.91429734 -0.68314207 0.38012695 -0.061400097 1.164839 -0.51704973
-0.81640726 -0.8327213 -0.44467106 1.0747422 -0.7035461 0.7971035 0.8048152 0.7742762
-0.75063384 -0.69825536 -0.74114144 0.1791063 -0.87468624 0.8116943 -0.92121804 -0.96366036
0.03420786 -0.056445017 0.34143293 1.3362498 -0.74366397 -0.8819979 -0.3860232 0.106847726
1.0275444 0.5304933 0.96885073 -1.0649042 0.18115796 -0.68306917 -0.93832254 -0.85470307
-0.9265167 1.0593396 -0.81620175 -0.5711185 -0.8666145 0.054205082 0.6698982 -0.5192983
0.31052154 1.2250313 -0.68105525 1.1962872 -0.6931335 -1.0060247 -1.1067857 -1.0549139
-1.1951557 0.21041952 -0.85823745 -0.6334149 -0.731953 -0.81912607 -0.7768767 -0.740082
-1.0731882 -0.99354136 1.0171176 -0.102625325 -1.0558516 0.78634685 0.81369746 -1.0724828
0.79819155 -0.55522645 -0.10763987 0.4849385 0.3095944 -0.06864184 -1.030654 -0.8622195
0.034751493 0.21070048 0.6083059 -0.80077064 -0.61126786 0.59414244 1.1157552 -0.99930394
-0.32207704 -0.6908751 -0.9482087 -0.81231964 0.78301114 0.9948272 -0.41868505 -0.3181282
-1.0546185 -0.66887933 -0.60512793 0.3971068 -0.18614922 -0.62620103 1.2205569 0.4726852
-0.388078 -0.91880244 -1.1010534 0.6349534 -1.0861592 -0.24721237 0.2066681 -0.7440757
0.8577382 0.9777652 -1.0581317 0.21446078 -0.6757285 -0.8121436 -0.9565428 1.402458
-1.0372256 -0.9023948 -0.91277236 -0.96371293 -0.8227596 1.1961442 0.816599 -0.64327604
-0.8381045 -0.8102957 -0.8628487 -0.5612433 -0.91740274 -0.84817624 -0.44027546 0.9979299
-0.8607241 -0.17814094 -0.9011258 -0.8570028 -0.93039894 -0.47423464 -1.0581743 -0.68893516
0.26979586 0.66197807 -0.85265857 1.0758387 1.0063571 -0.9256791 -1.00148 -0.9023384
-1.0337988 1.1090306 0.94546765 -0.8328217 -0.91260076 -0.11408366 -0.392651 -0.7753083
-0.3335104 0.36196715 1.0317078 -0.7998941 -0.6450161 -1.0754635 -0.73304653 -0.039769147
-0.72552145 0.43765408 -1.0186714 0.61157787 -0.7725182 1.3707657 -0.6798095 0.83717763
1.1020685 -0.92513317 -0.8518227 1.1207324 -0.577713 -0.59061927 -0.6727322 -0.771507
-0.4466939 -1.0105642 -0.8517459 -0.6654074 -0.1667536 -0.70208544 -0.9568572 -1.1116513
-0.37720338 -0.5005461 -1.0954938 -0.9153561 -0.4840664 -1.1458265 -0.49555057 -0.6305098
-0.6417264 0.9243135 -0.63658774 -0.782006 -1.0477296 0.5253144 -1.0817658 0.0073031923
-0.93927157 1.0425253 -1.0376382 -0.81261706 0.0200129 -0.16091758 -0.9971146 -0.6889038
00000000: 1313 1d3f a60b 60bf 73bf f3be b67f 843f
00000010: 284a 80bf a61f bebe 9e9f 78bf 3c32 47bf
00000020: 2d6a 763f ef59 063f 03f9 c33d fc26 883f
00000030: 7586 59bf 482d 2abf 3eb0 17bf 682c 943f
00000040: a7ee 45bf b64c d93e 2df7 4dbf 4a29 ea3e
00000050: cc6a 813f f141 54bf f223 3bbf 274e 18be
00000060: 1fb9 4fbf 10f6 61bf bba8 8a3f 478d 3bbf
00000070: 2c62 9dbe 86c9 2dbf 7910 18bf b798 4abf
00000080: 28cd 43bf c12d 59bf 714a 3dbf 69dd 9abf
00000090: fbe2 3fbf ce42 81bf 282f 05bf f1f5 52bf
000000a0: 3abe c4bd 5601 9a3f 640f 6abf 66e2 2ebf
000000b0: 00a0 c23e ab7e 7bbd 7219 953f 5f5d 04bf
000000c0: 1100 51bf 392d 55bf edab e3be 2791 893f
000000d0: 991b 34bf fa0e 4c3f 5e08 4e3f f736 463f
000000e0: 8a29 40bf ddc0 32bf 72bb 3dbf a467 373e
000000f0: 70eb 5fbf 33cb 4f3f f2d4 6bbf 72b2 76bf
00000100: 8a1d 0c3d e432 67bd 4cd0 ae3e 3c0a ab3f
00000110: c360 3ebf 9dca 61bf d5a4 c5be fbd2 da3d
00000120: 9386 833f 69ce 073f 9a06 783f c84e 88bf
00000130: 7981 393e 9fdd 2ebf e835 70bf d2cd 5abf
00000140: 3330 6dbf 7198 873f 99f2 50bf d234 12bf
00000150: 73da 5dbf 2606 5e3d 737e 2b3f bcf0 04bf
00000160: aefc 9e3e d3cd 9c3f a359 2ebf f01f 993f
00000170: 3271 31bf 6bc5 80bf 27ab 8dbf 6b07 87bf
00000180: ddfa 98bf 3778 573e 73b5 5bbf 7b27 22bf
00000190: 4661 3bbf 3fb2 51bf 64e1 46bf 0476 3dbf
000001a0: 3b5e 89bf ba58 7ebf e930 823f 3a2d d2bd
000001b0: 2526 87bf 074e 493f 7a4e 503f 1e47 89bf
000001c0: 4856 4c3f 5223 0ebf 4b72 dcbd dc49 f83e
000001d0: 2883 9e3e 1894 8cbd 78ec 83bf 6bba 5cbf
000001e0: 9557 0e3d dec1 573e efb9 1b3f 4eff 4cbf
000001f0: 0d7c 1cbf b819 183f 11d1 8e3f 62d2 7fbf
00000200: 48e7 a4be 31dd 30bf cebd 72bf 2ef4 4fbf
00000210: 6b73 483f ffac 7e3f e35d d6be b3e1 a2be
00000220: bdfd 86bf ad3b 2bbf aae9 1abf 9551 cb3e
00000230: e79d 3ebe b64e 20bf 353b 9c3f cb03 f23e
00000240: 29b2 c6be a336 6bbf 51ef 8cbf 4e8c 223f
00000250: 4407 8bbf 3d25 7dbe cda0 533e bf7b 3ebf
00000260: bb94 5b3f d24e 7a3f dc70 87bf 9b9b 5b3e
00000270: 8bfc 2cbf a5e8 4fbf fddf 74bf be83 b33f
00000280: cfc3 84bf 5803 67bf 73ab 69bf e4b5 76bf
00000290: 60a0 52bf 411b 993f a20c 513f bdad 24bf
000002a0: 048e 56bf 8a6f 4fbf a7e3 5cbf a4ad 0fbf
000002b0: e8da 6abf 1422 59bf c96b e1be 5578 7f3f
000002c0: 6a58 5cbf 946a 36be 2eb0 66bf 8964 5bbf
000002d0: a02e 6ebf e2ce f2be 4172 87bf 0e5e 30bf
000002e0: af22 8a3e 6577 293f d547 5abf 15b5 893f
000002f0: 4fd0 803f 4ef9 6cbf 7f30 80bf a6ff 66bf
00000300: 8553 84bf b7f4 8d3f 2b0a 723f ce33 55bf
00000310: 34a0 69bf b2a4 e9bd 8d09 c9be 9b7a 46bf
00000320: e0c1 aabe c253 b93e 000f 843f dcc5 4cbf
00000330: c61f 25bf caa8 89bf f0a8 3bbf f9e4 22bd
00000340: c6bb 39bf 3214 e03e d363 82bf 5e90 1c3f
00000350: c1c3 45bf 4075 af3f ff07 2ebf 4651 563f
00000360: 9510 8d3f 87d5 6cbf 0d11 5abf 2974 8f3f
00000370: 00e5 13bf d332 17bf 2d38 2cbf 7c81 45bf
00000380: 10b5 e4be 2b5a 81bf 050c 5abf 2458 2abf
00000390: 75c1 2abe dfbb 33bf 98f4 74bf 974a 8ebf
000003a0: cd20 c1be ca23 00bf 2439 8cbf c754 6abf
000003b0: 8dd7 f7be 71aa 92bf ceb8 fdbe 1769 21bf
000003c0: 2e48 24bf cf9f 6c3f 6af7 22bf 8c31 48bf
000003d0: 011c 86bf 017b 063f 4d77 8abf 9e4f ef3b
000003e0: 1a74 70bf 7871 853f 54d1 84bf ac07 50bf
000003f0: 18f2 a33c 94c7 24be e742 7fbf 005c 30bf

conv1.mlp.2.weight f4 [256, 256]
0.0004667487 -0.0028221544 -0.0041630175 -6.235234e-05 -0.0011757405 -0.0031244927 -0.00030907005 -1.8117328e-10
0.000991442 -0.0039050623 -0.0009119665 -0.0031919566 -0.00020328141 -0.000694871 -9.2045244e-05 -0.0005781055
-4.4806276e-07 5.4136967e-06 -2.6939439e-05 -0.0014743058 -0.002291041 0.00016829057 -4.391773e-06 -0.0016186868
-0.0003365185 -0.0014646543 -0.00072247145 -0.0016524123 -0.003289144 -0.00031054625 -0.0001047249 -0.00010535371
-6.823617e-06 -5.4663727e-05 -0.0027207755 5.0681097e-05 -2.2123024e-05 -0.0012376982 -0.004589163 -4.8999897e-05
-3.124733e-07 -0.0021116482 2.1149928e-05 -0.0040207007 -1.7848706e-05 0.000376241 -0.0023173068 -1.5182897e-05
0.00013796554 -0.0014519421 0.00012038577 -0.00520947 -0.0033411798 -0.0023486794 -0.0012572516 -0.00038781107
-0.00063120166 -0.0019372844 -5.7860147e-05 -0.0030011192 -0.0034958222 -0.00014723485 -0.0050606416 -0.00039053202
-0.00016092531 -1.1446709e-11 -0.0019393645 -0.00038779384 -0.0056716804 -0.0015429604 -0.0012885313 -0.0051130736
-0.004174477 -0.0040294537 -0.00019469255 -2.4782896e-05 -1.6175218e-05 -2.3553304e-05 -0.002260126 -0.0010320109
2.5952525e-07 -0.0037436844 -0.0021497877 -0.0070814705 -0.004819345 4.193709e-08 -5.0768038e-05 0.0010919262
-0.0033438164 -0.0053511043 6.8978065e-05 -0.0029777773 -0.0002267232 1.3357683e-07 0.0006867766 -0.0023071896
-0.0044057807 -0.00072703377 -7.0347364e-06 -0.00025780467 -6.11005e-05 -0.0023191848 -0.0028331205 -0.00013980074
-7.446151e-05 -0.00045864985 -0.0069426177 -0.00011599738 -5.6589815e-05 -0.0034874047 -0.0022122816 -0.0019748546
-0.0044734003 -0.00027659422 -1.6690444e-15 -0.0027339745 -0.002485296 -0.003575532 -0.00043617352 -2.5994143e-05
-0.0014455122 -0.0009175476 -0.0012438191 -9.6041546e-08 -1.8535792e-09 -0.004225992 -0.0023293486 -0.0029922486
-0.0012918132 -7.386186e-06 -0.00038061567 -0.0014775171 -0.004306094 -0.0017509675 -0.00168381 -3.4784498e-06
-4.418088e-05 5.49184e-05 -5.320534e-05 -0.0020486705 -0.0011738413 -0.0013859423 -0.0018725918 -0.00015477111
-0.00055996457 -0.0016924033 0.0007137869 -4.262374e-05 5.5366075e-07 -1.874954e-05 -1.2936111e-06 1.6774646e-07
-0.00059926836 -0.00063847326 -1.9567667e-06 -0.00018092658 -0.002405197 -2.8951219e-05 -0.0015987493 -0.0040307655
-0.002946121 -1.7707165e-06 -0.00089753274 -0.003145806 -0.00067629764 -0.004406943 -0.0006695117 -0.0006785552
-0.0001233965 -7.262967e-05 -3.044508e-06 -0.004828921 -2.1031969e-05 -0.003799071 -0.00020200126 -0.0036329255
-0.00019753145 -0.00037523647 -0.00016632216 -0.0007023831 -0.0060745236 -1.2447769e-05 -0.0018959421 5.6835175e-05
-5.8411413e-05 -0.0016644887 -0.00086147955 -0.002049556 -0.00427891 -0.004332957 -0.0008325289 0.0013370594
-0.00043478044 -0.00021387188 -0.0032244811 -4.736718e-05 -0.00034764066 -0.004428357 -1.9523497e-05 -1.9693105e-05
-5.045706e-06 -0.006683584 -0.00019784826 -1.9003455e-08 -1.9273637e-05 -4.4504937e-05 -0.0039743204 -0.003651743
-0.00019912695 -0.00483687 0.00018834915 -0.0001526209 -0.000101861195 -0.0001223385 -0.0017388319 -0.0030718287
-0.004822591 -0.0006337459 -0.000631019 0.0005415787 0.00043477787 -0.0025408834 -0.00021991174 -8.632211e-06
-0.0012123452 -0.0052715633 -5.1233026e-05 -1.0510028e-06 -0.0015797963 -0.00028808846 -0.0020120174 -0.00070287706
-7.564218e-08 -1.9917497e-05 -2.38598e-05 -6.7954034e-06 -0.0015256627 0.00012599748 -2.586996e-08 9.5368865e-05
-1.22424035e-05 0.00015788522 -0.003271389 0.00079913076 -3.4505327e-05 -0.0052104658 -0.0034603495 -6.0744387e-06
-2.8358477e-06 -6.18465e-05 -0.0021273128 -0.0037306037 -0.00042575665 -0.0026522062 0.00014846178 -7.289063e-06
00000000: f3b5 f439 e5f3 38bb ec69 88bb 28c3 82b8
00000010: 4e1b 9aba 4ac4 4cbb ae0a a2b9 bf33 47af
00000020: 46f3 813a 13ec 7fbb 0911 6fba 2530 51bb
00000030: f027 55b9 0128 36ba 6a08 c1b8 018c 17ba
00000040: 478d f0b4 4da7 b536 01fc e1b7 7e3d c1ba
00000050: 4a25 16bb 2877 3039 0b5d 93b6 1e2a d4ba
00000060: c06e b0b9 a5f9 bfba 3d64 3dba c295 d8ba
00000070: ae8e 57bb d0d0 a2b9 c19f dbb8 58f1 dcb8
00000080: 6cf6 e4b6 bb46 65b8 0a4f 32bb 6a92 5438
00000090: d594 b9b7 433a a2ba b160 96bb 3d85 4db8
000000a0: 01c2 a7b4 9463 0abb 206b b137 15c0 83bb
000000b0: ceb9 95b7 3642 c539 f5dd 17bb 0cba 7eb7
000000c0: d8aa 1039 184f beba 9e77 fc38 34b4 aabb
000000d0: b2f7 5abb 4dec 19bb 5dca a4ba 1f53 cbb9
000000e0: 3a77 25ba 7aec fdba dcae 72b8 6dae 44bb
000000f0: 2a1a 65bb 0e63 1ab9 bdd3 a5bb 52c0 ccb9
00000100: 0fbe 28b9 655f 49ad 4632 feba cf50 cbb9
00000110: 81d9 b9bb 293d caba f0e3 a8ba 928b a7bb
00000120: 0dca 88bb 8209 84bb 6226 4cb9 dde4 cfb7
00000130: 04b0 87b7 5694 c5b7 9f1e 14bb 8a44 87ba
00000140: e154 8b34 9a58 75bb 74e3 0cbb ae0b e8bb
00000150: 99eb 9dbb 511e 3433 c4ef 54b8 f71e 8f3a
00000160: ee23 5bbb 5158 afbb 51a8 9038 d026 43bb
00000170: 8cbc 6db9 526d 0f34 cc08 343a 3834 17bb
00000180: 5e5e 90bb 6996 3eba ed0b ecb6 f529 87b9
00000190: 1523 80b8 77fd 17bb e0ab 39bb 7a97 12b9
000001a0: 3828 9cb8 f176 f0b9 e67e e3bb 9f43 f3b8
000001b0: da5a 6db8 f18c 64bb edfb 10bb 906c 01bb
000001c0: 9a95 92bb d903 91b9 df88 f0a6 7b2c 33bb
000001d0: 59e0 22bb 7953 6abb 38ae e4b9 ff0d dab7
000001e0: 5777 bdba 9487 70ba a507 a3ba 663f ceb3
000001f0: 05c1 feb0 317a 8abb fca7 18bb 9a19 44bb
00000200: 0f52 a9ba dbd6 f7b6 5f8d c7b9 3fa9 c1ba
00000210: 221a 8dbb b880 e5ba 4ab3 dcba 506f 69b6
00000220: dc4e 39b8 2f58 6638 cc28 5fb8 fd42 06bb
00000230: 94db 99ba 82a8 b5ba c171 f5ba 0e4a 22b9
00000240: 96ca 12ba a2d3 ddba 6e1d 3b3a e4c6 32b8
00000250: 479f 1435 5548 9db7 24a0 adb5 cc1d 3434
00000260: 3818 1dba 375f 27ba ff50 03b6 1cb7 3db9
00000270: 82a0 1dbb 45dc f2b7 208d d1ba 8314 84bb
00000280: b513 41bb 5ba9 edb5 6748 6bba de29 4ebb
00000290: 9149 31ba 1e68 90bb 2b82 2fba 12e1 31ba
000002a0: ff63 01b9 c250 98b8 4050 4cb6 ed3b 9ebb
000002b0: cf6d b0b7 d6f9 78bb 4dd0 53b9 6016 6ebb
000002c0: 7220 4fb9 63bb c4b9 c466 2eb9 2220 38ba
000002d0: cc0c c7bb c3d6 50b7 4381 f8ba 4e62 6e38
000002e0: c7fe 74b8 f92a daba ead4 61ba d851 06bb
000002f0: 1936 8cbb 7afb 8dbb 123e 5aba 4540 af3a
00000300: 3ef3 e3b9 cc42 60b9 d151 53bb 1fac 46b8
00000310: 8a43 b6b9 c01b 91bb 64c6 a3b7 9f32 a5b7
00000320: 494e a9b6 f701 dbbb 7d75 4fb9 0a3d a3b2
00000330: d2ad a1b7 d0aa 3ab8 043b 82bb 1552 6fbb
00000340: bccc 50b9 9b7e 9ebb 977f 4539 dc08 20b9
00000350: 509e d5b8 fe47 00b9 84e9 e3ba bc50 49bb
00000360: d306 9ebb f821 26ba f86a 25ba bbf8 0d3a
00000370: e6f2 e339 f384 26bb 1c98 66b9 10d3 10b7
00000380: 8ee7 9eba 14bd acbb 0be3 56b8 2e10 8db5
00000390: 2b11 cfba 940a 97b9 0ddc 03bb 4841 38ba
000003a0: ba70 a2b3 8014 a7b7 8826 c8b7 1204 e4b6
000003b0: bff8 c7ba 311e 0439 a538 deb2 c500 c838
000003c0: b964 4db7 fe8d 2539 cd64 56bb c27c 513a
000003d0: d0b9 10b8 8ebc aabb 08c7 62bb 08d3 cbb6
000003e0: 7e4f 3eb6 96b3 81b8 636a 0bbb 257d 74bb
000003f0: 1738 dfb9 a3d0 2dbb 68ac 1b39 9394 f4b6

conv1.mlp.2.bias f4 [256]
-0.0011698502 -3.390948e-10 -6.6960645e-11 -0.0035917526 0.73454964 -7.066973e-05 0.88792914 -0.008328182
-0.004017187 0.6061789 6.5544e-41 0.16567618 -0.017259585 -0.9798205 -0.18486951 0.70602995
-0.010985141 -0.017993169 0.3717671 -0.008241368 -0.90143543 -0.005369428 -0.01017164 -0.0021798294
-0.001976738 -3.1598663e-08 0.18707287 -0.43124205 -1.7959515e-07 -9.17062e-05 -0.0032992696 -1.3110121e-38
-0.011160427 -5.7517e-11 -4.7416973e-27 0.28959423 -2.517812e-08 -0.006680312 0.15120225 0.72579896
-0.009290972 -9.724761e-29 -0.508559 -0.6918442 -0.18785165 -0.004080843 -0.012898386 -0.0029329062
0.8604481 -0.4593034 -1.38614936e-11 0.7787696 -2.1789618e-20 -0.010918818 -2.3560146e-05 -0.8099372
-0.00013795335 -0.0058450154 0.14377397 -0.38724262 3.3477e-41 -5.2201e-41 -0.00082943623 0.04873347
-0.0006738899 -0.015788771 0.8076515 -1.6044348e-10 -0.008717448 -0.005565099 0.8674862 -0.3142248
0.8437871 -5.4844936e-13 -0.012947202 -1.2453652e-10 -0.8906406 -0.9573171 0.090167955 -0.014072328
-0.26633158 -3.1488447e-22 -0.6046675 -0.44296163 -0.08511525 0.048751988 -0.00056916603 -3.0129555e-05
-2.1635e-41 -0.0027449334 0.14642727 0.31051362 -4.899865e-16 -0.0035083017 -0.054827522 0.8540595
-9.166389e-15 -0.0097333575 0.719149 -0.8726777 -0.006718876 -0.011051424 0.84731513 -0.010109471
-6.2713543e-06 -9.104758e-07 -9.657825e-07 -4.1741067e-05 -3.5151057e-05 -0.0062551475 -5.2815594e-05 -4.857613e-10
-1.4464956e-14 -1.3835121e-12 -1.7664506e-27 -0.009883523 -0.0047210464 -0.09093712 -0.0002187678 -0.028624726
-2.4490665e-10 -1.7692939e-26 -0.017319957 -3.3269516e-18 -1.4572112e-06 -0.009341461 -0.91588175 -0.42923498
0.5509709 0.2787377 -1.4667041e-14 -0.0019139686 -0.029866904 -2.2801354e-10 -0.0032550455 0.6078565
-0.0024457986 -9.186e-42 -0.004693444 -8.60614e-09 0.46108025 -0.013731219 -1.8133595e-07 -0.0073612374
-0.029773507 -0.09644233 -0.3837478 -0.012883636 -0.020235252 0.8442836 -2.0070252e-06 -5.034847e-10
-0.85362786 0.057611033 -1.4850625e-07 -0.89771354 -2.7942924e-12 0.91147375 -5.1779652e-21 1.9426e-41
-3.0984683e-15 0.030206554 -0.00039283806 0.7315302 -6.59616e-28 -0.009788258 -4.356138e-35 -7.1680784e-05
-0.00016589809 -1.4628146e-11 -0.7621449 -0.68760407 -3.8888925e-38 -0.02160865 -6.3062303e-28 -2.3912101e-14
-5.3725107e-05 -2.3972862e-14 -0.0153579125 0.24732721 -2.2708194e-16 -0.013636633 -0.3325636 -5.1856065e-23
6.7774e-41 -0.00091497746 0.57736737 -0.011993877 -0.0039495016 -0.009431138 0.20374344 -2.2165997e-10
-1.6072685e-10 -6.3478103e-07 -0.80485946 0.9349687 0.07776761 1.578e-41 -0.29239464 0.35167074
-0.019698158 -8.228469e-17 0.27776146 0.17588133 -3.442804e-05 -0.011236611 0.02607896 -0.002782623
9.8063546e-27 -1.3318e-41 -1.6362251e-30 4.63e-42 -0.008709997 -0.0044171945 -0.9700823 -3.6117217e-06
-4.3491605e-06 -0.00018659096 -3.0175127e-12 -0.0031695103 -0.6300635 -5.4970167e-28 -0.24086231 -0.014050391
0.8565869 -0.015886886 -0.00746015 -0.0009975791 -2.3830158e-05 -1.4106668e-05 0.95311475 0.40618142
0.71296924 0.14067423 0.85541457 -0.0075332737 -1.4134428e-10 -0.0033205852 -0.0096643055 -0.00026810038
0.31959006 0.11478126 -0.17826872 0.91166353 -0.00034719385 0.9202189 0.7309621 -0.017143715
-0.012732405 0.07812111 -3.5813e-41 -0.2710852 4.950238e-06 -0.03791009 -5.5360763e-21 -8.494151e-08
00000000: a955 99ba 5a6b baaf 7e3f 93ae 9c63 6bbb
00000010: 720b 3c3f 8634 94b8 534f 633f ed72 08bc
00000020: 9ba2 83bb 8a2e 1b3f b6b6 0000 04a7 293e
00000030: f963 8dbc 84d5 7abf 6f4e 3dbe 61be 343f
00000040: 05fb 33bc 6966 93bc 4258 be3e ce06 07bc
00000050: 79c4 66bf 07f2 afbb f3a6 26bc 78db 0ebb
00000060: 298c 01bb 19b7 07b3 0890 3f3e c2cb dcbe
00000070: bdd6 40b4 6452 c0b8 8f38 58bb afc1 8e80
00000080: 39da 36bc 63f6 7cae 86d6 bb93 b245 943e
00000090: 4547 d8b2 85e6 dabb c3d4 1a3e f6cd 393f
000000a0: 2939 18bc 4f8d f690 ec30 02bf b41c 31bf
000000b0: 2f5c 40be 98b8 85bb c153 53bc 0036 40bb
000000c0: 5446 5c3f d129 ebbe 9eda 73ad 725d 473f
000000d0: 10cc cd9e d8e4 32bc 07a3 c5b7 0b58 4fbf
000000e0: 92a7 10b9 8b87 bfbb 7c39 133e aa44 c6be
000000f0: 525d 0000 8491 0080 866e 59ba bf9c 473d
00000100: fca7 30ba 7457 81bc 40c2 4e3f d368 30af
00000110: a1d3 0ebc 6f5b b6bb 9313 5e3f 13e2 a0be
00000120: 6e02 583f f15f 1aab 8020 54bc eaed 08af
00000130: 0601 64bf bc12 75bf faa9 b83d 9f8f 66bc
00000140: 9d5c 88be 0356 be9b 7dcb 1abf decb e2be
00000150: e750 aebd 2ab0 473d 1634 15ba babe fcb7
00000160: 4f3c 0080 57e4 33bb 08f1 153e a4fb 9e3e
00000170: 9f3a 0da6 89eb 65bb d392 60bd a5a3 5a3f
00000180: 8220 25a8 a978 1fbc 261a 383f ce67 5fbf
00000190: 042a dcbb 0811 35bc a5e9 583f 32a2 25bc
000001a0: 866e d2b6 6c67 74b5 09a0 81b5 2113 2fb8
000001b0: 296f 13b8 fbf7 ccbb 5086 5db8 6a86 05b0
000001c0: eb49 82a8 47b6 c2ab e0f3 0b93 80ee 21bc
000001d0: 02b3 9abb 3e3d babd 0965 65b9 677e eabc
000001e0: 8ca3 86af ee38 af94 95e2 8dbc 577c 75a2
000001f0: 6595 c3b5 ed0c 19bc 3a77 6abf b0c4 dbbe
00000200: 6e0c 0d3f b5b6 8e3e e51b 84a8 21de faba
00000210: 70ab f4bc 1bb4 7aaf 9a52 55bb 7c9c 1b3f
00000220: b149 20bb 9b19 0080 76cb 99bb 34da 13b2
00000230: b612 ec3e e8f8 60bc 3fb5 42b4 8936 f1bb
00000240: 92e7 f3bc 8e83 c5bd 977a c4be e315 53bc
00000250: 66c4 a5bc f822 583f 6eb0 06b6 9665 0ab0
00000260: 5b87 5abf 8cf9 6b3d 1675 1fb4 8ed0 65bf
00000270: 7fa1 44ac 5856 693f 359e c39d 2736 0000
00000280: a744 5fa7 bc73 f73c d5f5 cdb9 9045 3b3f
00000290: 680a 5192 ee5e 20bc ae9c 6786 5453 96b8
000002a0: eef4 2db9 a8ab 80ad ee1b 43bf d206 30bf
000002b0: 40bb 5381 a004 b1bc 38da 4792 8d61 d7a8
000002c0: e556 61b8 a8ed d7a8 c19f 7bbc 5843 7d3e
000002d0: 61e7 82a5 2f6c 5fbc c745 aabe b3c2 7a9a
000002e0: edbc 0000 19db 6fba 59ce 133f f781 44bc
000002f0: d26a 81bb 0f85 1abc 1fa2 503e bcb7 73af
00000300: 96b8 30af d265 2ab5 450b 4ebf 1c5a 6f3f
00000310: a044 9f3d fd2b 0000 c0b4 95be 300e b43e
00000320: 085e a1bc 4fbc bda4 c036 8e3e 3c1a 343e
00000330: d466 10b8 c319 38bc 8ba3 d53c ab5c 36bb
00000340: 203c 4214 2025 0080 11bf 048e e80c 0000
00000350: 60b4 0ebc 1dbe 90bb 5057 78bf e860 72b6
00000360: 01ef 91b6 a1a7 43b9 ad56 54ac 8fb7 4fbb
00000370: d74b 21bf 1935 2e92 9ca4 76be 9c33 66bc
00000380: 4749 5b3f 3725 82bc 4674 f4bb 33c1 82ba
00000390: e0e6 c7b7 adab 6cb7 54ff 733f 03f7 cf3e
000003a0: 2785 363f e80c 103e 73fc 5a3f aed9 f6bb
000003b0: e168 1baf 2d9e 59bb 0957 1ebc d38f 8cb9
000003c0: 4fa1 a33e 7012 eb3d 138c 36be c862 693f
000003d0: 9207 b6b9 7793 6b3f 5520 3b3f fa70 8cbc
000003e0: 949b 50bc f6fd 9f3d d563 0080 aecb 8abe
000003f0: 381a a636 9c47 1bbd a525 d19d 1769 b6b3

conv2.mlp.0.weight f4 [256, 259]
3.48e-42 -2.928e-41 -2.32768e-40 -2.54797e-40 -4.9387e-41 -5.9847e-41 -4.990978e-22 2.5777e-40
8.8664e-41 -7.9773135e-25 2.34185e-40 -7.818106e-38 1.18822e-40 -4.518896e-27 -5.7895e-41 1.4959e-41
-1.90511e-40 1.59003e-40 5.6037e-41 5.2888e-41 -1.4791697e-31 2.25102e-40 -1.5472e-41 6.9345e-41
2.31461e-40 -1.51333e-40 4.8433e-41 2.103e-42 9.2117e-41 3.98812e-40 6.271e-42 -2.13007e-40
1.72759e-40 -7.187e-42 1.81883e-40 3.570653e-39 8.5769e-41 -2.01274e-40 -1.386387e-39 -5.0452e-41
2.1945e-40 1.5144e-40 -4.5074334e-32 -1.1576e-41 -4.3956194e-35 1.56902e-40 -3.33065e-40 2.05278e-40
2.2705e-41 -9.19e-42 9.0856e-41 6.919e-41 -2.3762e-41 1.20596e-40 -2.48845e-40 -1.5115019e-10
2.13272e-40 -1.87604e-40 5.2687e-41 -2.2206433e-26 1.12884e-40 1.62632e-40 -6.665e-41 2.4314e-41
3.3111e-41 1.02574e-40 -5.3730657e-25 8.4437e-41 -2.47953e-40 -1.51812e-40 -1.9673089e-30 -2.3668e-41
-6.507061e-27 -2.56307e-40 -1.16383e-40 -1.16304e-40 3.977e-41 4.2295e-41 -3.0335e-41 1.23234e-40
-4.5238e-41 -2.04157e-40 -1.771639e-39 -1.3456297e-24 1.1968e-41 -2.0449049e-29 -2.06679e-40 7.788e-41
1.74645e-40 1.84108e-40 -2.664226e-39 -1.3479e-41 -1.83424e-40 -8.699e-41 6.6295e-41 5.1166e-41
1.9113e-40 6.9084e-41 -3.9355e-41 4.9846e-41 3.10065e-40 -1.7584e-40 -4.447e-41 -9.6782e-41
-1.82313e-40 -1.08856e-40 1.62678e-40 -1.4964e-41 2.1301e-41 7.1668e-41 3.6796e-40 -1.57814e-40
1.8521e-41 -2.12206e-40 3.9655e-41 1.21004e-40 6.847e-41 -3.2063e-41 1.41852e-40 1.63456e-40
2.2142e-40 -1.3026e-40 3.15111e-40 1.50701e-40 6.855e-42 1.1984e-41 -2.6961663e-26 1.4533e-41
6.747e-41 -1.6398e-41 -3.28958e-40 -1.49779e-40 -9.846e-41 1.34571e-40 -3.63343e-40 6.9687e-41
3.51526e-40 -2.6197e-40 -4.4078e-41 9.316e-42 4.4581e-41 -1.8506e-41 1.65832e-40 -2.19663e-40
-2.76897e-40 1.824719e-39 -5.8259e-41 -1.18282e-40 3.7876e-41 -6.757202e-22 -2.50825e-40 -7.311e-41
-7.476636e-11 3.8897e-41 -2.22452e-40 -4.252038e-39 2.19153e-40 -2.4996e-41 4.291e-40 1.86908e-40
4.0621e-41 -2.9898e-41 3.1679e-40 -7.1756e-41 1.2857e-40 3.312e-41 2.5658e-40 7.29e-43
-2.5848e-41 -1.4943e-40 -5.5406e-41 -6.0619e-41 5.497e-42 4.0917e-41 4.9457e-41 -3.39079e-40
3.02765e-40 2.31225e-40 1.76561e-40 -2.007807e-14 -3.43247e-40 -2.4985e-41 -2.7889e-41 -1.17534e-40
3.07125e-40 9.6065e-41 -4.3608e-41 -1.72302e-40 9.3024e-41 3.47996e-40 -2.492771e-21 2.37973e-40
6.0788e-41 -2.41746e-40 -2.5390653e-27 -2.598e-42 9.5459924e-24 2.4696e-41 -1.015e-42 1.8305e-41
3.9378e-41 -2.47765e-40 4.5525e-41 -2.4352e-41 2.61429e-40 2.03819e-40 -5.2025e-41 -1.97349e-40
-2.19047e-40 -2.14812e-40 4.11224e-40 3.16717e-40 -9.4033e-41 8.6631e-41 1.8674e-41 -6.001e-41
2.92587e-40 1.11964e-40 -1.98097e-40 1.47935e-40 -5.1443e-41 -1.95831e-40 -6.4081e-41 -1.8527e-41
4.4498e-41 -2.6887e-41 1.36506e-40 -4.1714e-41 -1.87187e-40 -1.11451e-40 4.482519e-36 4.52e-41
6.5954e-41 1.261775e-20 -4.1833892e-22 -1.62157e-40 2.26464e-40 -2.24002e-40 -1.55204e-40 -1.9153e-40
-2.3141772e-36 1.0990944e-26 1.2467e-41 3.2615e-41 1.58495e-40 -2.159e-41 8.500039e-36 -3.962e-41
-1.62953e-40 1.67361e-39 -6.7714e-41 -1.54751e-26 1.52159e-40 -6.7526e-41 5.1258e-41 -1.80504e-40
00000000: b309 0000 9f51 0080 dd88 0280 45c6 0280
00000010: ac89 0080 d4a6 0080 d2d7 169c 8fce 0200
00000020: 29f7 0000 cae2 7697 d08c 0200 3fd4 d481
00000030: 3a4b 0100 0d03 b393 63a1 0080 b329 0000
00000040: 1113 0280 3cbb 0100 359c 0000 6e93 0000
00000050: d801 408c 7e73 0200 212b 0080 4ec1 0000
00000060: 3885 0200 dba5 0180 0387 0000 dd05 0000
00000070: c900 0100 ba57 0400 7b11 0000 c751 0280
00000080: 95e1 0100 0914 0080 04fb 0100 87e1 2600
00000090: 17ef 0000 1231 0280 af18 0f80 a48c 0080
000000a0: bd63 0200 27a6 0100 110a 6a8b 4520 0080
000000b0: 12b6 6986 61b5 0100 73a0 0380 3b3c 0200
000000c0: 4b3f 0000 9e19 0080 45fd 0000 e0c0 0000
000000d0: 3d42 0080 2c50 0100 aeb5 0280 ff30 26af
000000e0: 8452 0200 f70a 0280 df92 0000 ffeb db94
000000f0: ad3a 0100 5ac5 0100 cbb9 0080 c743 0000
00000100: 4d5c 0000 ef1d 0100 d049 2697 60eb 0000
00000110: 31b3 0280 31a7 0180 689b 1f8e fa41 0080
00000120: b8e2 0094 7bca 0280 6e44 0180 3544 0180
00000130: dd6e 0000 e775 0000 9054 0080 8757 0100
00000140: 1b7e 0080 1b39 0280 9c4a 1380 e239 d097
00000150: 5d21 0000 c460 cf8f 2340 0280 19d9 0000
00000160: d7e6 0100 3801 0200 c702 1d80 9325 0080
00000170: 50ff 0180 7ef2 0080 ceb8 0000 a18e 0000
00000180: cb14 0200 94c0 0000 b56d 0080 f38a 0000
00000190: 5660 0300 2cea 0180 f77b 0080 ca0d 0180
000001a0: 37fc 0180 722f 0180 7bc5 0100 b729 0080
000001b0: 613b 0000 c8c7 0000 b901 0400 ecb7 0180
000001c0: a133 0000 8b4f 0280 8b6e 0000 4f51 0100
000001d0: debe 0000 6159 0080 6d8b 0100 a6c7 0100
000001e0: 3b69 0200 1d6b 0180 676e 0300 18a4 0100
000001f0: 1c13 0000 6821 0000 f881 0595 8328 0000
00000200: 14bc 0000 b62d 0080 0095 0380 86a1 0180
00000210: 7712 0180 2177 0100 daf4 0380 42c2 0000
00000220: e9d3 0300 44da 0280 df7a 0080 f819 0000
00000230: 467c 0000 9633 0080 46ce 0100 5564 0280
00000240: e003 0380 93de 1300 67a2 0080 b949 0180
00000250: 9569 0000 5139 4c9c 33bb 0280 cdcb 0080
00000260: b869 a4ae 6e6c 0000 1b6c 0280 f44c 2e80
00000270: e962 0200 ae45 0080 28ac 0400 0609 0200
00000280: 3c71 0000 5853 0080 1573 0300 07c8 0080
00000290: 6766 0100 535c 0000 3ecb 0200 0802 0000
000002a0: 0e48 0080 8da0 0180 739a 0080 fba8 0080
000002b0: 530f 0000 0f72 0000 de89 0000 37b1 0380
000002c0: fc4b 0300 9084 0200 2eec 0100 e1d8 b4a8
000002d0: d5bc 0380 a645 0080 be4d 0080 a347 0180
000002e0: 2458 0300 ca0b 0100 9079 0080 4fe0 0180
000002f0: 5003 0100 12ca 0300 3459 3c9d 5f97 0200
00000300: 74a9 0000 e4a1 0280 5d2a 4993 3e07 0080
00000310: 77a5 3819 d844 0000 d402 0080 0733 0000
00000320: c56d 0000 abb2 0280 e87e 0000 e243 0080
00000330: c2d8 0200 2a38 0200 0691 0080 2126 0280
00000340: 9d62 0280 cf56 0280 537a 0400 e172 0300
00000350: 2006 0180 7ef1 0000 0e34 0000 49a7 0080
00000360: 9d2f 0300 1c38 0100 3728 0280 629c 0100
00000370: 678f 0080 e621 0280 a2b2 0080 a533 0080
00000380: 0b7c 0000 f34a 0080 867c 0100 4874 0080
00000390: cd09 0280 ae36 0180 4faa be04 007e 0000
000003a0: dab7 0000 b257 6e1e d0de fc9b 07c4 0180
000003b0: 4a77 0200 6d70 0280 a5b0 0180 e815 0280
000003c0: 51de 4484 b5b2 5914 c122 0000 eb5a 0000
000003d0: d2b9 0100 2f3c 0080 9dc6 3405 726e 0080
000003e0: 3fc6 0180 5839 1200 c2bc 0080 0a42 9994
000003f0: 28a8 0100 3cbc 0080 e38e 0000 2cf7 0180

conv2.mlp.0.bias f4 [256]
3.3519e-41 -4.1261e-41 -6.2439e-41 -0.007233942 -0.4612403 -0.011028743 2.5895e-41 -6.6957e-41
-1.1674e-41 -2.9381e-41 3.04e-43 -3.817e-42 -6.3762e-41 -5.4082e-41 -0.8908637 -0.005156865
-0.00016498056 -5.9662e-41 -7.6993e-41 -4.685e-41 8.8178e-41 -0.46218443 -0.02110277 -1.1885959e-11
8.9016e-41 -3.275089e-11 9.2501e-41 -2.3850811e-08 -4.2613e-41 -4.3252534e-05 -0.0007889072 -0.0016680773
-8.066821e-07 7.088e-41 -0.0020395769 -0.0038452116 -6.7704e-41 4.657e-42 -0.39157376 -1.6618e-41
-4.846e-42 1.3394515e-21 -2.8039e-41 -2.7094227e-06 -0.0035223642 -0.27935952 -5.0978e-41 -3.676e-42
3.6947e-41 -2.7842136e-06 -0.0067985225 -1.668386e-05 -0.0023232673 -8.480018e-06 -0.004995641 -8.8804e-41
-1.8660355e-19 2.6559e-41 -1.3776504e-07 -7.3215e-41 7.9206e-41 -6.7631e-41 -0.018121984 -0.006950963
1.1894e-41 -0.0066083428 -0.003524865 -8.2916385e-10 8.925e-42 -0.022114113 -0.011900296 -0.0036009531
-7.402476e-07 -9.326e-41 4.0516e-41 -8.1878265e-05 -6.3683233e-06 1.63e-41 -0.5622387 -3.556e-42
-0.6484528 -0.70222867 -0.0006797613 -0.010402122 -0.008579879 -5.644886e-05 -4.8141286e-05 -0.017445603
-3.5087803e-24 1.09342e-40 -3.792603e-08 5.521e-41 -0.0033730583 0.8543201 -0.00022318408 -5.171653e-07
0.01016591 4.1631377e-36 -0.007794778 -1.8377346e-08 -0.004232622 -4.652427e-06 -0.2820895 -0.0004994178
-6.713568e-35 -1.0105604 -0.0023919644 -0.055858888 -0.78041154 -6.3349835e-13 -1.3237767e-12 -0.0066054775
-0.21686867 9.4299e-41 3.8984e-41 -4.4183e-41 4.1716175e-37 -9.0848e-41 -2.9752435e-05 6.2484e-41
-0.0015485359 -8.5596e-41 2.4416e-41 -0.00026169533 -1.5345176e-21 -3.395e-42 3.6029e-41 6.709e-41
-2.8560557e-06 -0.011526481 -1.4347135e-29 7.41e-43 7.9169e-41 9.5e-44 -0.009287158 -0.581783
-6.239365e-06 -0.00052748295 -0.013246007 -3.3518e-41 -0.48619986 0.17251132 -5.1184e-41 -0.004685315
0.83291423 -0.01268308 -0.76633894 -0.0072630625 -1.1592768e-05 0.48766145 -1.2117854e-10 0.06845815
8.011e-42 -8.389412e-33 -3.5989947e-15 -3.526e-42 -1.0982188e-22 3.1204e-41 -1.05e-43 -9.748452e-10
-0.004110044 -0.011919552 -0.0029934826 7.856e-42 -0.0010464853 0.35446578 -4.1937e-41 0.5637787
-0.1405816 -0.013604619 -7.752e-42 -9.788906e-05 -7.043e-41 0.12044805 -0.3211514 -5.000749e-05
1.4751877e-28 -2.6179e-41 -6.2901755e-32 -1.1784e-41 6.868e-42 5.4797128e-33 -7.9004e-41 1.7085e-41
-3.389184e-09 4.2186e-41 -0.53565276 8.7e-42 -1.1415e-41 6.8676e-41 2.0501e-41 -4.9973054e-18
-1.3011e-41 -1.5999968e-14 -9.761898e-16 -4.3524e-41 -0.00042785594 -8.631399e-31 -0.44036075 6.4367e-41
-7.666712e-09 7.42e-42 2.918e-41 5.7455e-41 -0.017104693 -9.404113e-27 -2.8309e-41 -2.6567e-41
-4.541431e-26 -4.7523727e-06 -0.0035971785 -6.8187e-41 -7.912019e-05 -6.7757e-41 9.4666e-41 -3.256e-41
-2.7736217e-23 -0.001269572 -0.49573663 -0.019028215 -6.5257e-41 2.8e-43 -2.511e-42 -0.009160977
-2.5311856e-16 -0.005229695 -0.003473043 -5.3603126e-06 -0.015807038 -0.0061023743 8.3484e-41 -1.5231539e-24
1.3413e-41 -0.7092011 -0.019289069 -0.001466701 0.79307985 -5.2236e-41 -4.306559e-29 -0.0016465537
-1.3014594e-12 -0.003456991 -1.62562e-07 -0.016153857 -5.9223934e-15 0.93030703 -1.3840894e-05 -0.0014581208
-7.2765e-41 -6.034535e-31 4.183073e-39 -0.35266975 -2.5223e-41 1.239e-42 -4.213e-41 -7.05e-43
00000000: 705d 0000 0573 0080 0eae 0080 b40a edbb
00000010: b027 ecbe e7b1 34bc 2f48 0000 a6ba 0080
00000020: 8b20 0080 e751 0080 d900 0000 a40a 0080
00000030: beb1 0080 c296 0080 a50f 64bf ebfa a8bb
00000040: a2fe 2cb9 50a6 0080 a0d6 0080 9982 0080
00000050: cef5 0000 70a3 ecbe b7df acbc 9a19 51ad
00000060: 24f8 0000 390a 10ae db01 0100 7de0 ccb2
00000070: ca76 0080 0e6a 35b8 aace 4eba 63a3 daba
00000080: c68a 58b5 96c5 0000 6caa 05bb f2ff 7bbb
00000090: bbbc 0080 fb0c 0000 5b7c c8be 532e 0080
000000a0: 820d 0080 8569 ca1c 294e 0080 87d3 35b6
000000b0: 77d7 66bb 3608 8fbe 1b8e 0080 3f0a 0080
000000c0: fe66 0000 6dd8 3ab6 24c6 debb 51f4 8bb7
000000d0: f541 18bb 6645 0eb7 79b2 a3bb 8df7 0080
000000e0: 764d 5ca0 094a 0000 91ec 13b4 18cc 0080
000000f0: cbdc 0000 87bc 0080 8e74 94bc e7c4 e3bb
00000100: 2821 0000 cc8a d8bb 6c01 67bb 38eb 63b0
00000110: e118 0000 a828 b5bc 76f9 42bc f8fd 6bbb
00000120: 6db5 46b5 f903 0180 f170 0000 0fb6 abb8
00000130: 7baf d5b6 702d 0000 e0ee 0fbf ea09 0080
00000140: 0101 26bf 42c5 33bf 0232 32ba a96d 2abc
00000150: 9f92 0cbc 80c3 6cb8 50eb 49b8 15ea 8ebc
00000160: 47bd 8798 cd30 0100 1ce4 22b3 e799 0000
00000170: 870e 5dbb b9b4 5a3f 8506 6ab9 54d3 0ab5
00000180: eb8e 263c 8e14 b104 566b ffbb 36dc 9db2
00000190: cfb1 8abb 0b1c 9cb6 096e 90be 5ceb 02ba
000001a0: 2d7a b286 0b5a 81bf 81c2 1cbb 4acc 64bd
000001b0: 0dc9 47bf 5e50 32ab 154e baab c372 d8bb
000001c0: d212 5ebe de06 0100 ac6c 0000 2a7b 0080
000001d0: eaf3 0d03 3ffd 0080 de94 f9b7 2eae 0000
000001e0: 3ef8 caba 9bee 0080 1044 0000 2734 89b9
000001f0: c6e3 e79c 7709 0080 6f64 0000 05bb 0000
00000200: aaaa 3fb6 91d9 3cbc 4b7f 918f 1102 0000
00000210: b1dc 0000 4400 0000 2a29 18bc bbef 14bf
00000220: bd5b d1b6 c846 0aba c805 59bc 6f5d 0080
00000230: 30ef f8be cfa6 303e ae8e 0080 4587 99bb
00000240: de39 553f b1cc 4fbc ca2e 44bf fcfe edbb
00000250: 8f7e 42b7 c3ae f93e ba3c 05af c933 8c3d
00000260: 5516 0000 c43d 2e8a deaa 81a7 d409 0080
00000270: 3ac4 049b fc56 0000 4b00 0080 51fb 85b0
00000280: 8cad 86bb 3a4a 43bc 4e2e 44bb e615 0000
00000290: 382a 89ba 8a7c b53e e774 0080 cd53 103f
000002a0: 9ff4 0fbe e8e5 5ebc 9c15 0080 ca49 cdb8
000002b0: 55c4 0080 78ad f63d f56d a4be 22bf 51b8
000002c0: 9400 3b11 fa48 0080 634d a38b d920 0080
000002d0: 2513 0000 4d9e e309 3bdc 0080 a02f 0000
000002e0: 28e7 68b1 9975 0000 8a20 09bf 4118 0000
000002f0: d21f 0080 71bf 0000 2639 0000 375e b8a2
00000300: 4524 0080 6a1d 90a8 0caf 8ca6 5479 0080
00000310: da51 e0b9 6e0d 8c8d f776 e1be 6eb3 0000
00000320: 8eb6 03b2 af14 0000 5851 0000 29a0 0000
00000330: 241f 8cbc 8544 3a94 ea4e 0080 0f4a 0080
00000340: 7ae1 6095 9276 9fb6 a4be 6bbb 14be 0080
00000350: 54ed a5b8 e1bc 0080 e407 0100 c45a 0080
00000360: c61f 069a c467 a6ba 31d1 fdbe 0fe1 9bbc
00000370: e9b5 0080 c800 0000 0007 0080 ec17 16bc
00000380: b5e9 91a5 dc5d abbb fe9b 63bb bcdc b3b6
00000390: c37d 81bc 6df6 c7bb b8e8 0000 58b2 eb97
000003a0: 6425 0000 348e 35bf 1c04 9ebc 523e c0ba
000003b0: 4807 4b3f 9d91 0080 555e 5a90 2dd1 d7ba
000003c0: 042a b7ab af8e 62bb b48c 2eb4 1855 84bc
000003d0: 7060 d5a7 9a28 6e3f 3036 68b7 6a1e bfba
000003e0: d7ca 0080 f5d4 438d b58c 2d00 2191 b4be
000003f0: 5046 0080 7403 0000 7175 0080 f701 0080

conv2.mlp.2.weight f4 [256, 256]
2.31792e-40 -1.60471e-40 -2.63502e-40 -2.48625e-40 -2.7550037e-26 3.12411e-40 1.94978e-40 -1.26281e-40
-1.3144e-41 -1.88791e-40 -1.67905e-40 1.90543e-40 2.5887e-40 -2.4992e-40 -1.5393253e-14 2.90229e-40
2.68176e-40 -3.867e-41 -1.83843e-40 1.0486e-40 1.76683e-40 -5.945434e-18 -5.970769e-19 2.63074e-40
-1.04988e-40 2.99494e-40 -2.01765e-40 8.9319e-41 -1.1788e-40 1.1329e-40 -1.86939e-40 4.619e-42
-1.16131e-40 2.89262e-40 7.6002e-41 1.60083e-40 6.1827e-41 -1.28482e-40 -3.0636076e-13 3.3422e-41
3.95299e-40 -5.7373e-41 -2.3913e-41 2.5934e-41 -2.0987e-40 4.2978e-41 5.1756e-41 9.9641e-41
2.48204e-40 1.23268e-40 1.93641e-40 -2.31039e-40 3.33606e-40 -1.17565e-40 -7.4811e-41 -9.4721e-41
-3.07223e-40 2.84349e-40 -1.42118e-40 -1.62353e-40 -5.5157e-41 1.63387e-40 2.18342e-40 -3.16504e-40
1.72759e-40 2.56326e-40 1.86447e-40 5.958e-42 3.37654e-40 -5.472e-41 -1.54102e-40 -1.6081e-40
-2.35108e-40 1.9072e-41 1.76482e-40 -1.81196e-40 2.31183e-40 -2.34206e-40 -1.5936527e-18 2.59777e-40
-2.7783662e-14 -1.4612278e-20 -2.02723e-40 -1.39903e-40 9.316e-42 1.56944e-40 -1.69525e-40 2.00572e-40
-3.7162e-40 7.7374e-41 -3.9494e-41 9.7099e-41 1.87522e-40 -1.182934e-13 -7.1773e-41 9.902e-41
-1.32e-41 1.49534e-40 3.928e-41 -2.62029e-40 -1.76383e-40 -2.56574e-40 -1.1227108e-15 -1.19235e-40
-1.9891e-40 -6.443156e-33 9.0343e-41 1.1674e-41 -4.0265104e-14 1.63265e-40 -2.31144e-40 -1.9066e-40
-2.6067557e-26 2.31538e-40 -1.70755e-40 7.4835e-41 2.63207e-40 -1.60687e-40 1.97601e-40 8.206e-41
1.91144e-40 -2.5618e-40 2.4757e-41 -1.8883e-40 -2.24875e-40 -3.65223e-40 -2.30051e-40 1.2389e-40
-1.55054e-40 5.5291e-41 2.00573e-40 2.61086e-40 -2.0687e-40 4.7898e-41 1.98883e-40 -1.3256656e-33
3.29e-40 -1.1389e-40 -1.2847e-40 -1.71873e-40 -2.1099637e-23 -2.3938e-41 2.55104e-40 -2.44733e-40
-1.7672545e-29 -2.02e-41 -2.138065e-32 1.99202e-40 -2.01856e-40 -7.8075e-31 -2.052e-41 -1.1026027e-25
4.06333e-40 -3.35538e-40 -1.27772e-40 -1.74804e-40 -3.24553e-40 8.7909e-41 -1.58795e-40 1.63127e-40
2.0905e-40 9.2071e-41 4.3069e-41 1.27871e-40 5.9334e-41 1.7899e-41 2.07472e-40 -2.0542e-41
-6.104364e-12 9.0322e-41 -2.24602e-40 -4.348e-41 3.39692e-40 -1.06624686e-19 3.4513e-41 1.92866e-40
-1.87115e-40 -1.63757e-40 -1.73683e-40 1.40291e-40 -2.56219e-40 -1.66998e-40 -1.77851e-40 2.05327e-40
6.2944e-41 1.88755e-40 -1.2559517e-24 2.88369e-40 -1.743e-40 2.75584e-40 7.3991e-41 -1.78378e-40
-2.28548e-40 1.99394e-40 -5.347e-41 1.03688e-40 -1.20978e-40 -1.4509e-40 -2.9660058e-18 -1.3686e-41
-3.433e-40 2.6236e-40 1.22464e-40 1.0655e-41 1.91846e-40 2.24967e-40 -1.81495e-40 3.41768e-40
7.7416e-41 -2.03677e-40 -3.54359e-40 1.34878e-40 -6.53e-43 -3.40109e-40 -2.62843e-40 -1.1316e-40
1.58484e-40 8.5031e-41 -4.5658497e-13 -4.37193e-40 2.49658e-40 -3.13927e-40 1.39173e-40 -1.2987e-40
-7.8725e-41 2.09644e-40 -6.5448e-41 -1.99793e-40 -1.71305e-40 -1.1541e-41 7.6477e-41 -2.47452e-40
-2.37353e-40 -4.2658098e-17 -3.9023e-41 -1.85348e-40 -2.926464e-33 -7.0865e-41 -1.96986e-40 -2.11446e-40
3.982e-42 -3e-41 -2.94273e-40 1.39592e-40 2.14874e-40 -2.818071e-13 -2.64883e-40 4.709e-41
6.588e-41 3.73017e-40 -2.26729e-40 -2.3369544e-18 2.16781e-40 2.54058e-40 3.05005e-40 7.14e-41
00000000: 2486 0200 54bf 0180 89de 0280 11b5 0280
00000010: d26b 0895 e066 0300 851f 0200 0560 0180
00000020: a424 0080 460e 0280 0dd4 0180 2813 0200
00000030: a0d1 0200 adb8 0280 6da6 8aa8 0a29 0300
00000040: 91eb 0200 cc6b 0080 7b00 0280 4f24 0100
00000050: 85ec 0100 0959 dba2 db39 30a1 58dd 0200
00000060: aa24 0180 de42 0300 7032 0280 fcf8 0000
00000070: 9a48 0180 ce3b 0100 1c09 0280 e00c 0000
00000080: ba43 0180 5826 0300 ddd3 0000 3fbe 0100
00000090: 59ac 0000 2866 0180 3d77 acaa 2b5d 0000
000000a0: ef4d 0400 ef9f 0080 a942 0080 4b48 0000
000000b0: 0849 0280 ce77 0000 4690 0000 c215 0100
000000c0: e4b3 0200 9f57 0100 cb1b 0200 0b84 0280
000000d0: f5a1 0300 b947 0180 8bd0 0080 0b08 0180
000000e0: 6a58 0380 a618 0300 2b8c 0180 93c4 0180
000000f0: c199 0080 75c7 0100 a660 0200 4972 0380
00000100: 95e1 0100 88ca 0200 bd07 0200 9c10 0000
00000110: 3ead 0300 8998 0080 93ad 0180 46c0 0180
00000120: 638f 0280 2a35 0000 f6eb 0100 1af9 0180
00000130: 7284 0200 df8c 0280 7f2e eba1 27d4 0200
00000140: c340 faa8 5202 8a9e 1c35 0280 fe85 0180
00000150: f819 0000 7fb5 0100 91d8 0180 1d2f 0200
00000160: ed0b 0480 b0d7 0000 186e 0080 ac0e 0100
00000170: bc0a 0200 c02f 05aa 13c8 0080 0714 0100
00000180: cc24 0080 d7a0 0100 7f6d 0000 6eda 0280
00000190: afeb 0180 39cb 0280 b8cc a1a6 614c 0180
000001a0: 7b2a 0280 b1d1 058a d7fb 0000 8b20 0000
000001b0: 8156 35a9 1ec7 0100 5684 0280 7c13 0280
000001c0: 8e14 0195 6f85 0200 ffdb 0180 9cd0 0000
000001d0: b7dd 0200 eebf 0180 d526 0200 c0e4 0000
000001e0: d514 0200 20ca 0280 0345 0000 620e 0280
000001f0: dc72 0280 18fa 0380 4a81 0280 5b59 0100
00000200: 3ab0 0180 219a 0000 1e2f 0200 cdd7 0200
00000210: ab40 0280 8585 0000 682a 0200 9443 dc88
00000220: 1e95 0300 7b3d 0180 1f66 0180 1ddf 0180
00000230: 2c10 cc99 bb42 0080 20c7 0200 37aa 0280
00000240: 8d38 b38f 4f38 0080 8407 de8a 4b2b 0200
00000250: b132 0280 2c5e 7d8d 3439 0080 e07e 0896
00000260: b16c 0400 58a7 0380 2d64 0180 48e7 0180
00000270: b988 0380 0ef5 0000 a8ba 0180 bbc6 0100
00000280: bf46 0200 a800 0100 0f78 0000 7464 0100
00000290: 66a5 0000 e531 0000 5942 0200 4339 0080
000002a0: 39c7 d6ac c8fb 0000 1972 0280 3479 0080
000002b0: ecb2 0300 abc2 fb9f 3560 0000 a219 0200
000002c0: 9a09 0280 7dc8 0180 28e4 0180 1387 0100
000002d0: 3cca 0280 86d1 0180 c7ef 0180 5e3c 0200
000002e0: 76af 0000 2c0e 0200 5f59 c297 db23 0300
000002f0: e1e5 0180 3700 0300 42ce 0000 3ff1 0180
00000300: 197d 0280 d42b 0200 0d95 0080 0a21 0100
00000310: 3d51 0180 7494 0180 44da 5aa2 2726 0080
00000320: fbbc 0380 5adb 0200 6155 0100 b41d 0000
00000330: ca16 0200 1e73 0200 eff9 0180 b6b8 0300
00000340: ced7 0000 c537 0280 cfdb 0380 fc77 0100
00000350: d201 0080 16b4 0380 b3dc 0280 723b 0180
00000360: cab9 0100 08ed 0000 6a84 00ab b7c2 0480
00000370: f2b7 0200 1a6b 0380 f583 0100 066a 0180
00000380: 74db 0080 6748 0200 71b6 0080 f12c 0280
00000390: 87dd 0180 2c20 0080 30d5 0000 ccb1 0280
000003a0: a595 0280 cbb9 44a4 c86c 0080 ad04 0280
000003b0: 021f 7389 8bc5 0080 1e25 0280 6d4d 0280
000003c0: 1a0b 0000 a153 0080 5034 0380 2085 0100
000003d0: fb56 0200 afa4 9eaa 63e2 0280 4583 0000
000003e0: a6b7 0000 d20f 0400 0778 0280 d26f 2ca2
000003f0: 4c5c 0200 36c4 0200 3b52 0300 09c7 0000
