pointnet-latest.pth (torch, 951625 bytes, 10 tensors)

conv1.mlp.0.weight f4 [256, 6]
000000 e2 2a c8 3e 44 f8 9e 3e 1b 65 42 be 04 47 8a be
       0.39095217 0.31048787 -0.18983881 -0.27007306
000010 b0 c1 ba be 83 02 f6 bd 83 ae c6 be a7 4c c7 be
       -0.36475897 -0.12012198 -0.38805017 -0.3892567
000020 c4 7a a4 bd dd 4e bf 3e 23 f9 ba 3d 15 f4 d4 bd
       -0.08031228 0.37364855 0.0912955 -0.103981175
000030 7c b6 6e be cc 51 7e 3e 0a 9d a7 be ad d4 bc 3e
       -0.233118 0.2483589 -0.32737 0.3688101
000040 64 ba 91 be 5d de 6e 3e 82 a6 98 3c 6f 09 00 3e
       -0.28462517 0.23327012 0.018634085 0.12503599
000050 d7 76 09 be 64 6d 8e be 4c 04 b6 be d0 fc 04 3e
       -0.1342424 -0.27817833 -0.35550153 0.12987065
000060 99 55 46 3e 7c 7c 38 3c 26 f8 a9 3e 2d b3 81 3e
       0.1936859 0.011260148 0.33197135 0.25332013
000070 4e cb c6 3e 83 54 6b be ad 6b 40 be 61 b7 50 be
       0.38826984 -0.22981457 -0.18791075 -0.20382454
000080 51 c0 99 3e 02 96 bd 3e c8 59 76 be d0 18 c4 be
       0.30029538 0.3702851 -0.24057686 -0.3830018
000090 53 1d 50 be 0f 50 c9 3e a5 d2 c4 3e 25 a0 7e 3e
       -0.20323686 0.39318892 0.3844196 0.24865778
0000a0 45 75 d3 bd 8c 85 36 3e a6 b7 41 3d 6e af 88 3d
       -0.10325102 0.17824382 0.04729428 0.066740856
0000b0 50 6b 4f 3e 14 52 ba 3d 84 b9 e0 3b 6f 3a ac bd
       0.2025578 0.090976864 0.0068580527 -0.08409583
0000c0 0e f2 6c 3e 0a 1e ce 3e 94 82 b8 3e 69 fe a8 be
       0.23139212 0.40257293 0.36037123 -0.330066
0000d0 48 26 8a be 09 44 47 3e a3 c5 0c be bc a6 a9 bd
       -0.2698233 0.19459547 -0.13747267 -0.08283755
0000e0 4a 5b a1 be f4 ea c6 bd 0f 79 74 3e 27 ea 4c be
       -0.3151496 -0.097127825 0.23874305 -0.20011197
0000f0 ba f9 9a 3e e1 16 ea 3c 1b bd ad 3e f7 68 a2 3e
       0.3026865 0.028575363 0.3393334 0.31720707
000100 f6 55 a9 3e aa 4e 71 3e 69 a7 1c be 01 f4 bf be
       0.33073395 0.23565164 -0.15298237 -0.37490848
000110 a3 66 64 be 2a e4 ac be 48 4a 9d 3d d1 a7 c9 be
       -0.22304778 -0.33767825 0.07680184 -0.39385846
000120 07 54 4e bd d4 9f 1f be 93 d2 da 3d 21 67 97 3e
       -0.050373103 -0.15588313 0.10684695 0.2957087
000130 d7 2f 3a bd 8e 1a 2e be e9 cd a3 3e 1b ad 8c 3e
       -0.04545578 -0.17002317 0.31993034 0.2747582
000140 18 b2 5e be d2 a7 78 3e d4 ca a1 be e9 6c 16 bd
       -0.21747625 0.24282768 -0.31600058 -0.03672496
000150 e4 2b 8d bc d4 bb 48 be f7 5b f8 bc 02 bd 7e 3e
       -0.017232843 -0.196029 -0.03031729 0.24876788
000160 b9 a3 86 3e 19 15 78 3e 3b 4e c0 be 58 79 0b be
       0.26296785 0.24226798 -0.37559685 -0.13620508
000170 88 78 71 be 9e 57 a2 be 90 c6 c0 be 46 02 c8 be
       -0.23581135 -0.31707472 -0.3765149 -0.39064234
000180 34 b4 35 3e b0 21 b1 be 49 3e 02 bd 23 44 48 be
       0.17744523 -0.34596014 -0.03179768 -0.19557242
000190 ab b8 6b 3e 9a a9 a0 3e 2c ff 63 be f0 23 9f bd
       0.23019664 0.31379396 -0.22265309 -0.077705264
0001a0 8e a6 6f be ac b8 65 be a7 62 60 be f1 03 07 be
       -0.2340338 -0.22433728 -0.21912633 -0.13185097
0001b0 d9 b5 8e be 3e bd 38 be eb ef b4 3e 2a a1 98 3d
       -0.27873114 -0.1804094 0.35339293 0.074526146
0001c0 56 6d ca 3d c7 80 8a be d5 90 8a 3e 18 d0 ba 3e
       0.098841354 -0.27051374 0.27063623 0.36486888
0001d0 84 84 99 3e 78 1e a8 3e 90 c6 9a be 7b 8e fa bd
       0.29983914 0.32835746 -0.30229616 -0.12234207
0001e0 74 51 86 bd 12 c7 b2 be 11 22 b9 3d c7 6c ca 3e
       -0.06558505 -0.34917504 0.09039701 0.39536116
0001f0 3d e3 bc be ca 4b 81 3e 72 19 9b 3e 4b 7d 74 3e
       -0.3689212 0.25253135 0.3029285 0.2387592
000200 c2 ee 5c 3d 43 3d d9 bc 65 aa 70 3e 72 b4 a0 be
       0.053938635 -0.02651847 0.235025 -0.3138767
000210 08 5d 0a 3e a8 2d 77 3d 68 e6 5b 3e d3 49 06 be
       0.13512051 0.060346276 0.21474612 -0.13114099
000220 9c a7 25 3e 23 9f 5d be dc e1 63 3d 8e 98 c9 be
       0.16177219 -0.21642737 0.05563532 -0.39374202
000230 54 65 9e be 91 50 af bc b5 ec 6e be 94 9d f3 3d
       -0.30936682 -0.021400722 -0.23332484 0.1189529
000240 e7 13 c3 be b9 ee 99 bd ed 7a 35 3e b4 e3 cb 3e
       -0.38101122 -0.07516236 0.17722674 0.3982216
000250 49 96 1c be 20 cd 7a be cb e5 9d 3e 5d 69 5c be
       -0.15291704 -0.24492311 0.3083938 -0.21524568
000260 d6 84 0c be 48 78 bf 3d 06 01 b6 3e 1a f1 73 3e
       -0.13722548 0.09349114 0.35547656 0.23822442
000270 69 64 13 3e f3 1c 12 3e 9f cf 3f 3d eb 6f 82 be
       0.14393772 0.14268856 0.046828862 -0.25476012
000280 02 38 cc bd c2 57 ac 3e 6a 15 bc 3d 9b b6 4b 3d
       -0.0997162 0.33660704 0.09183772 0.049734693
000290 be fd 18 be 28 04 55 be fe 82 a2 3e 2a 2c a4 bd
       -0.14940545 -0.20802367 0.31740564 -0.08016236
0002a0 9b 45 94 be e3 f7 18 3e 23 a7 66 be 06 c9 b7 3d
       -0.28959355 0.14938311 -0.22524695 0.08973889
0002b0 9f 6c 8a 3e e8 88 a3 3e a9 ea b6 3e cd 6d 54 be
       0.27035996 0.3194039 0.35725906 -0.2074501
0002c0 15 82 b1 bd b5 a3 8a be 11 93 ce 3e 99 75 af be
       -0.08667389 -0.27078024 0.40346578 -0.34269407
0002d0 f1 d3 bc be 38 e9 d4 bd 2b c0 cb 3e b3 c6 81 bd
       -0.36880448 -0.103960454 0.3979505 -0.06336727
0002e0 ac 5f 50 3e c7 ce a3 be 51 26 f3 3d 64 39 a0 3e
       0.20348996 -0.31993696 0.11872543 0.31293786
0002f0 41 86 36 3e b2 be b9 3e 82 f2 b0 be fe b1 38 3e
       0.17824651 0.362783 -0.3456002 0.18036649
000300 c9 72 0b be 19 8a cd 3e f4 2d 93 3e ca 00 a9 3e
       -0.13618006 0.40144423 0.28745997 0.33008415
000310 e2 71 13 3d f2 5a 4d 3d 60 4b 73 3e fe c8 56 3e
       0.03599728 0.05013556 0.23759222 0.2097511
000320 b2 76 a8 bc eb e5 bb bc e5 9b 36 be 9d 65 c1 3e
       -0.02056441 -0.022936782 -0.17832907 0.37772837
000330 f0 2c 9c bd fe 47 b5 be 94 60 b6 3e 1d 2f b0 bc
       -0.07625759 -0.35406488 0.35620558 -0.02150684
000340 07 68 91 be 76 36 6e be 91 67 af 3e 48 fe e4 bd
       -0.2839968 -0.23262963 0.34258702 -0.11181313
000350 5b 24 6c 3e 79 b3 89 3e 76 0d 8f be 1b 76 97 3e
       0.23060744 0.2689474 -0.27939957 0.29582295
000360 d3 8e ce 3c 40 20 a1 be ac f6 97 3e 14 52 c8 be
       0.025214588 -0.31469917 0.29680383 -0.3912512
000370 2a f3 ae 3e 83 f8 62 3e 4e a8 26 3e 88 01 a0 3e
       0.34169894 0.22165112 0.1627514 0.31251168
000380 a0 4b 4f 3d 1c 99 8a 3d c2 b9 45 3e c1 87 f0 bd
       0.05060923 0.067674845 0.19309142 -0.11744643
000390 31 35 b6 be e5 e4 31 bd a8 d3 9b bd 4b 0c 84 3e
       -0.35587457 -0.04343118 -0.076087296 0.2579063
0003a0 ad 03 00 3d 01 0d c6 be c9 c7 94 3e 6e b7 0f 3e
       0.031253505 -0.38681796 0.29058674 0.14034817
0003b0 64 80 56 bd 8d eb 52 be f4 ea 9b 3d 45 80 91 3e
       -0.052368537 -0.20597668 0.07613173 0.28418174
0003c0 5c 51 18 be 4d 9b 95 3e cf ae 30 be 4a d4 ed 3d
       -0.14874786 0.29220048 -0.17254184 0.116127566
0003d0 b6 02 81 3e 54 d4 c8 3d 74 bb 29 be 53 c2 e8 3d
       0.2519738 0.098061234 -0.16575414 0.113651894
0003e0 10 42 c1 bd 16 49 75 3c 95 7f 91 be 8c fe be be
       -0.094364285 0.014971038 -0.2841765 -0.3730358
0003f0 5d 62 94 3e 42 45 72 3e de 19 99 3e 88 d2 34 bd
       0.28981295 0.23659232 0.29902548 -0.04414609

conv1.mlp.0.bias f4 [256]
000000 97 7e c7 3e 6c 52 d6 bd a2 83 91 3e a7 68 3c 3e
       0.38963768 -0.104649395 0.2842074 0.18399297
000010 8f 2c 23 be 43 b7 0b bd 40 76 d7 bc fb 5d 1b 3e
       -0.15934967 -0.03411032 -0.026301503 0.1517257
000020 3b 41 98 3e cb f1 96 3d e0 cd 5d 3e 08 75 c1 3e
       0.29737267 0.07370337 0.21660566 0.377846
000030 37 a7 cc bd 56 49 05 3e 84 5e 18 3e 59 1b 96 3e
       -0.09992831 0.13016257 0.14879805 0.2931774
000040 1b cf 29 3e 6d 28 8b be 4b e0 b3 3d 2f b9 11 3e
       0.1658291 -0.2717928 0.08783015 0.14230798
000050 1a 6a 28 3e 8c 5f 01 be 8d fe 77 3d c6 d6 58 3e
       0.16446725 -0.12634104 0.060545493 0.2117568
000060 f6 b1 06 be 45 8a 55 3c 0b 97 8f 3e c5 d3 16 be
       -0.13153824 0.013033454 0.28044924 -0.14729221
000070 b5 0f b5 3e ae df 21 3e 5d a7 8f 3d 2b a0 5a 3d
       0.35363546 0.15807983 0.07014344 0.053375404
000080 be 21 af 3e 39 b2 a4 bd d0 09 8a be 94 7b ca be
       0.3420543 -0.08041806 -0.2696061 -0.39547408
000090 20 19 0c 3e 14 99 45 be 6d 3b a5 3e 93 3b 19 3e
       0.1368146 -0.19296676 0.322719 0.14964132
0000a0 b3 b6 56 3e f1 1b 5c 3e 8a a7 17 be 1c 9f 58 3e
       0.20968132 0.21495034 -0.14810005 0.21154445
0000b0 d0 f1 46 3e 31 43 a1 3c 42 81 b6 3e 4e c1 20 bd
       0.19428182 0.01968536 0.3564549 -0.03924685
0000c0 cb 38 6b be ca 70 a3 be cb cf 03 3e 5a a0 7b 3e
       -0.22970884 -0.3192199 0.12872235 0.24572888
0000d0 b1 bd a6 be 01 b2 0f bd 33 fa a8 3e 0f 53 01 3e
       -0.32566598 -0.035081867 0.33003387 0.1262934
0000e0 41 a9 8a bd f6 94 ae 3e d9 bb 9c be df 53 0a 3e
       -0.06770564 0.34098023 -0.30612066 0.13508557
0000f0 6e 81 44 bd 76 31 a2 3e aa 0e a9 bd c3 d0 a6 be
       -0.047974996 0.3167836 -0.0825475 -0.32581148
000100 c8 62 2f 3e 18 8e 56 3d d8 90 9f 3d ff e2 9d 3e
       0.17127526 0.052381605 0.07791299 0.30837247
000110 4b 06 9e be 91 b7 cb 3d 45 48 8c be 6b 0d 04 bd
       -0.30864176 0.09947122 -0.27398887 -0.03223936
000120 34 3b 5b 3e 90 f1 5d 3e c6 6e b5 3e bf ca b2 be
       0.21409303 0.2167418 0.35436076 -0.34920308
000130 c6 a9 b9 be 17 52 e7 3d ac 36 36 be 80 96 ef bd
       -0.3626234 0.11294954 -0.17794293 -0.116986275
000140 ca c1 8f be 46 74 32 3e ca e8 fc bc 32 41 86 3e
       -0.28077537 0.17427167 -0.030872721 0.26221615
000150 46 c2 95 bc d4 c4 93 3e fa df 24 3e 5b bf 86 ba
       -0.018281113 0.28861105 0.16101065 -0.0010280417
000160 fe 1d a5 bd b7 b6 a7 3e 12 d1 85 be 1d dc 9e 3e
       -0.08062361 0.32756588 -0.2613607 0.31027308
000170 f4 f5 e4 3d 2a 9c d4 bd 1d ea cf be 2d e2 82 be
       0.11179724 -0.103813484 -0.40608302 -0.25563183
000180 ab de c9 be e5 86 4b 3e fd ea d5 3d 9e f7 c4 be
       -0.39427695 0.19875677 0.10445211 -0.38470167
000190 42 2a a7 3d fb 5e b1 bc f4 ab b9 3d 80 cd 3b be
       0.08162357 -0.021651736 0.090660006 -0.18340111
0001a0 8b 0a b1 be 95 7e a4 be a0 5c 0c 3d 3d 5f 34 3e
       -0.34578356 -0.32127824 0.03426802 0.17614456
0001b0 07 b0 83 be 6d e6 1d 3e df 31 43 3e fe b0 48 be
       -0.25720236 0.15419932 0.19061993 -0.19598767
0001c0 76 01 68 3e d4 b8 53 3e c1 04 99 3e 63 34 a1 3e
       0.22656807 0.20675975 0.2988644 0.3148528
0001d0 db 4c 5f 3d 3b 21 08 bd 35 85 a5 be 48 32 1e be
       0.054516654 -0.033234816 -0.3232819 -0.15448868
0001e0 70 57 0a 3e 85 5a 88 bc f7 ea b2 3e b3 7d 21 bd
       0.13509917 -0.016644726 0.3494489 -0.039426517
0001f0 cb 69 cd 3c ef 45 b2 3e e6 17 85 3e 48 04 33 be
       0.02507486 0.3481898 0.25994796 -0.17482102
000200 29 e9 07 3e e0 c9 be be 55 d7 b4 be f4 19 85 3e
       0.13272537 -0.37263393 -0.35320535 0.25996363
000210 c9 2f b4 3e b6 3a 46 3e 31 c5 68 3e bf bb 7c be
       0.35192707 0.19358334 0.22731473 -0.24680994
000220 48 85 f2 bd b4 bb 36 3d 11 7b 23 3e 66 6e 7e 3e
       -0.11841828 0.0446126 0.15964915 0.24846801
000230 f9 b7 9a 3e a6 e0 47 3e 72 b3 ec 3d f0 d1 37 3e
       0.30218485 0.1951929 0.11557664 0.17951179
000240 b3 4f c7 be b2 2c c2 be 46 a8 ad be 37 ee 40 be
       -0.38927993 -0.37924725 -0.33917445 -0.18840872
000250 16 dd b9 be da 5d 20 3d be 79 0d 3e 7e a4 3c 3e
       -0.36301488 0.039152004 0.13815972 0.18422124
000260 5e 7c 86 3e 39 ea 8f 3e b6 22 b1 be 99 e2 0e bd
       0.2626676 0.28108385 -0.34596795 -0.03488407
000270 01 32 6d be 3f b4 a0 3e 9e c1 12 be 83 6c 98 3e
       -0.23163606 0.31387517 -0.14331672 0.29770288
000280 44 b0 56 be af 33 92 be 5a df c3 be b4 63 d0 bd
       -0.20965677 -0.28555056 -0.3825634 -0.10175267
000290 df 46 04 be 17 ca 28 3e 68 34 99 3e 81 e3 2e 3e
       -0.1291766 0.16483341 0.29922795 0.17078973
0002a0 81 ce d1 be c2 bc 96 be 70 c3 6a be d6 3f 19 be
       -0.40977862 -0.29440886 -0.22926116 -0.14965758
0002b0 e8 2b 51 be b0 08 85 be 99 b4 a4 bd a6 48 94 3e
       -0.20426905 -0.2598319 -0.08042259 0.28961676
0002c0 8d a8 b5 be 24 04 ba bd 20 79 52 be 84 85 b4 3a
       -0.35480157 -0.09082821 -0.20554018 0.0013772701
0002d0 2e c0 be be de d0 00 3e a2 91 c8 be 8a 62 04 bd
       -0.37255996 0.12579677 -0.3917361 -0.032320537
0002e0 a5 06 83 bd b6 84 47 3e 89 18 a5 3c ef b3 d7 3d
       -0.06397752 0.19484219 0.0201533 0.105323665
0002f0 a1 0f 67 3e 51 50 c0 3c 5b a8 55 be 27 ca 90 be
       0.22564556 0.023475798 -0.20865004 -0.2827923
000300 80 1e 5c be 92 ce b5 3e f4 28 11 3e ce d0 41 3e
       -0.2149601 0.35509163 0.14175779 0.18927309
000310 a7 07 81 3c 13 89 c8 3e 75 d2 a7 3d 6a 5d 3a 3e
       0.01575072 0.3916708 0.08194438 0.18199697
000320 51 4c a5 bd 9e d0 9a 3e aa a2 b6 3e bd 05 c2 bd
       -0.08071197 0.30237287 0.35670978 -0.09473751
000330 91 92 56 be 71 25 cd be 2b cc 89 3d b1 ab 65 3e
       -0.20954348 -0.40067628 0.06728395 0.22428776
000340 09 f7 70 be 31 1e 52 3e 7a 78 87 be e5 7e 20 3d
       -0.23531736 0.2051933 -0.26459104 0.039183516
000350 32 dc d1 bd e0 55 c2 3e e6 93 c6 3d 03 20 e3 3d
       -0.10247077 0.37956142 0.09696178 0.1109009
000360 48 0a 9a 3e 9a dc fd bc aa 86 14 be e2 45 be 3e
       0.3008597 -0.03098898 -0.14504495 0.3716269
000370 f0 95 bc be bb 66 be be f8 3b 8b be 5a 2c 56 be
       -0.36833143 -0.37187752 -0.2719419 -0.20915356
000380 8e ae 88 3d bc ef bb be 5f 2d 02 be 07 0e 37 3d
       0.06673919 -0.3670634 -0.1271262 0.044691112
000390 a9 d6 56 3e 07 26 72 3c bd 51 49 be 7b 67 b6 be
       0.20980324 0.014779574 -0.19660087 -0.35625824
0003a0 d7 45 36 3e a6 d7 cc 3d fa 74 a9 be 04 d2 82 bd
       0.1780008 0.10002069 -0.3309706 -0.063877136
0003b0 e7 98 a1 3e 23 60 cf be e2 c8 b8 3b b8 82 ad be
       0.31561968 -0.40503034 0.0056391815 -0.33888793
0003c0 aa 72 2d 3e 24 29 30 3e 5c 64 8a 3e 75 b2 4c be
       0.16938272 0.17203194 0.27029693 -0.19989951
0003d0 ab 6f b9 be 3c 08 02 3e dd 84 be be 29 d3 67 3e
       -0.36218008 0.12698454 -0.37210742 0.22639145
0003e0 3b 39 4d be 9e a8 9c 3e ed e0 a1 bd d5 82 55 3e
       -0.20041363 0.30597395 -0.07904229 0.2085069
0003f0 e3 23 b7 3e 37 d4 b3 3e fa e0 5d be b5 6d 39 3e
       0.35769567 0.35122845 -0.21667853 0.18108256

conv1.mlp.2.weight f4 [256, 256]
000000 5b 0d 11 bd 0a 6a 77 bd f4 51 55 bd a1 a7 8a bd
       -0.035413127 -0.06040386 -0.05208011 -0.06770254
000010 24 22 76 bd 22 24 e4 bc bf 8c 55 3d ae 01 0a 3c
       -0.060091153 -0.02784926 0.05213618 0.008423252
000020 07 21 1c 3d 74 3c 1a bd 1d 62 4a bd 10 fd 5b bd
       0.038117435 -0.03765531 -0.049409974 -0.053708136
000030 ef ef 8b bc 21 f7 2f bd dc ca 8f 3c 71 4d 3c 3c
       -0.017082183 -0.04296029 0.017552786 0.011493073
000040 3d 53 19 3d 58 c8 e2 3c 52 23 79 3b f6 be 15 bb
       0.037432898 0.027683422 0.0038015437 -0.0022849417
000050 57 31 6d bc 6b b2 e1 bc de 9f 1d 3c dd 6e 46 3c
       -0.014477096 -0.027550897 0.009620635 0.012111393
000060 a4 8a 81 bd 6a 1f 8e bc 8e f5 e3 bc 87 a1 a6 3c
       -0.06325272 -0.017348964 -0.02782705 0.020340694
000070 dd 9d 7f bd 0a 83 58 3d 56 e4 e2 bc 95 4d 72 bd
       -0.06240641 0.052859344 -0.02769677 -0.05915602
000080 b3 c8 ef 3c 35 72 55 3d ea 5a 0f bd 0c 87 fa bc
       0.029270506 0.05211087 -0.03499881 -0.030581973
000090 fb 9a 33 3d 23 b1 1a 3b 97 30 94 bc 4b 3d ec 3c
       0.043848973 0.0023604117 -0.018089576 0.02883782
0000a0 da 22 57 3d 2d e6 e5 3c eb a3 38 3d 3c 06 af 3c
       0.05252347 0.028063858 0.0450782 0.021365277
0000b0 51 1f 63 bd be 08 89 bd 84 cb 11 3d a6 fa 7d bd
       -0.055449788 -0.066911206 0.03559448 -0.062006615
0000c0 36 f8 65 bd 24 e7 38 bd 77 57 06 3a 9d 44 3f 3d
       -0.056144916 -0.045142308 0.00051247276 0.046696294
0000d0 f5 df 69 bd 28 7a 5c 3c 92 14 03 bd 4c 57 e6 3c
       -0.057098348 0.013456859 -0.03200204 0.028117798
0000e0 b0 84 53 3c 26 7d 7a bc e3 57 51 3d 17 98 74 bc
       0.012910053 -0.015288627 0.051109206 -0.014928839
0000f0 1b ad 59 bd 6a 8a c9 3b 67 a9 f3 bc 14 36 0a bd
       -0.053143602 0.0061505334 -0.029743863 -0.03374298
000100 bf 27 14 3d 01 3a 60 bd 99 16 4e 3c 61 14 f9 bc
       0.036170717 -0.054742817 0.01257863 -0.030405225
000110 7e 32 21 3d be 1d 50 3d 98 5f 19 3d 19 50 28 3d
       0.039354794 0.050809614 0.03744468 0.041092012
000120 6c 5d 19 3d 55 e2 77 bd 76 79 f9 3c 5a b1 5b 3d
       0.03744261 -0.06051858 0.030453425 0.053635933
000130 53 9f fb 3c 7c 9d 3b 3b 3b 38 14 bc 16 a1 8f ba
       0.03071562 0.0028627804 -0.0090466095 -0.0010958042
000140 48 7a ca 3c 9b 36 53 3d 44 d8 c1 3c 73 a8 68 3b
       0.024716511 0.051565748 0.023662694 0.0035500794
000150 89 d4 6a 3d ec b0 82 bd d3 32 24 3d d7 3e 1b 3d
       0.057331596 -0.063814014 0.040087532 0.037901726
000160 d0 ba 40 3d 6f 8a 01 3d e0 4e 6f bd ef ac 65 bd
       0.04705316 0.03162616 -0.05842483 -0.056073125
000170 0e d5 3c 3d c7 cb c0 3c e3 58 1e bd 0c d2 90 ba
       0.046101622 0.023534669 -0.038658988 -0.0011048927
000180 ff dc 6b bc 20 93 0a bd 26 8b 1d 3d 03 bc 21 3d
       -0.014395951 -0.033831716 0.03846278 0.039485943
000190 3d 37 8d 3b 79 2f 81 bd 91 23 0f bd 1d b1 61 3d
       0.0043095634 -0.06307883 -0.03494603 0.05510055
0001a0 91 0e 0e bd 6b 81 86 bd 8b a9 40 3d 9e 13 22 bd
       -0.03468186 -0.06567653 0.04703669 -0.03956949
0001b0 04 5a 25 bd 95 a8 18 bc f1 d1 38 3d ff 20 82 bd
       -0.04036905 -0.009317537 0.04512209 -0.0635395
0001c0 1d 2a 32 3d 48 35 55 bd 90 21 db 3c 82 0d 24 bd
       0.043497194 -0.052052766 0.026749402 -0.040051945
0001d0 cc d3 87 bd 7b 5f 08 3c 8d 77 49 bd 40 4b 54 3d
       -0.06632194 0.008323546 -0.049186278 0.051829576
0001e0 d0 92 99 3c 97 fe c0 3c 6b c3 cc bc 89 5e 66 3d
       0.018746763 0.023558898 -0.024995526 0.0562425
0001f0 d6 ba 97 bb 98 5a 7a 3c 32 4f 57 bd f6 66 d5 3c
       -0.004630427 0.015280388 -0.05256576 0.026050072
000200 93 3d 0d 3d 6c 15 5c 3d fb 26 f7 bb 15 3c 55 3d
       0.03448255 0.053731367 -0.0075424886 0.05205925
000210 0e 9b 08 3d 83 0e 3b 3d eb 62 69 bd 09 e4 e6 ba
       0.033350997 0.045668136 -0.0569791 -0.0017615567
000220 00 e2 d0 bc 7c 4e 39 3d 45 d6 80 3b 7e de 34 3d
       -0.02549839 0.045240864 0.003931793 0.044157498
000230 a5 b6 d6 3c 1c b0 40 bd 77 8c 6b 3c ee 50 1d 3d
       0.026210139 -0.04704295 0.014376751 0.03840726
000240 51 99 67 bd 49 0d 82 bd 77 de 3e bd 31 ec 26 bd
       -0.0565427 -0.0635019 -0.046598878 -0.040752593
000250 0e bc 74 3b 8f 3e cd bc cf 4a 5f bd 2f 88 0b 3d
       0.0037343535 -0.025054244 -0.054514702 0.03406542
000260 7c 1a 08 bd 62 f0 22 bd 01 5d 25 bd 0c c9 3a 3b
       -0.033228382 -0.03978003 -0.0403719 0.002850118
000270 74 5c 26 bd 58 a2 04 3d 8d 58 0a bc 85 f9 53 3d
       -0.040615514 0.032381386 -0.008443964 0.051751632
000280 5f a1 02 bd f8 13 24 3d 9b 92 38 3c 3a 71 3b bd
       -0.031892177 0.040058106 0.011265422 -0.04576228
000290 3f d8 eb bc f5 eb 31 bd 0d 3e 1a bd 5e 5a 3b bd
       -0.028789638 -0.043437917 -0.037656832 -0.045740478
0002a0 e0 02 69 3d 96 b3 9a 3c f2 f4 c5 3c 3b e9 5d bd
       0.056887507 0.018884461 0.02416465 -0.054177504
0002b0 fc 72 82 bd 60 0b 4b bd d0 59 19 3d d8 c1 03 3d
       -0.06369588 -0.049571395 0.037439167 0.032167286
0002c0 4c d2 f0 bc c8 1a 56 bd d7 36 ba bc 26 4b 88 bd
       -0.029397152 -0.052271634 -0.022731228 -0.066549584
0002d0 c7 1f 82 bd 62 f1 f0 3b e7 72 5c 3d 77 a0 08 bd
       -0.06353717 0.007352994 0.053820517 -0.033356156
0002e0 ca e0 86 bd 2f f4 8d 3b 07 27 2d bc ce 8a 09 bd
       -0.06585844 0.0043320875 -0.010568387 -0.03357964
0002f0 ce 13 73 bd 8c 81 40 bd 9e 52 b5 bc 00 36 55 bc
       -0.05934506 -0.046998546 -0.022134122 -0.013013363
000300 df b9 5a 3a a7 4c 97 bc 3d b9 0f bc 5d 66 87 bd
       0.0008343737 -0.018469168 -0.008772192 -0.06611321
000310 70 22 35 3c 48 83 0d 3d ff 8e 31 3d 64 22 02 3d
       0.011055574 0.034549028 0.043349262 0.03177108
000320 0a f0 44 3a fb 93 53 3d f7 a6 60 3d 02 6c 8e 3b
       0.0007512575 0.051654797 0.05484673 0.0043463716
000330 2a d8 8e 3c 0d ae c7 3c b0 52 81 bd 2b e5 4c bd
       0.01743706 0.024374986 -0.063145995 -0.05002324
000340 44 89 ff bb d0 71 ea bc d0 8b 04 bd 78 e8 55 bd
       -0.0077983458 -0.028618723 -0.032359898 -0.052223653
000350 f5 88 d3 3b ed 32 23 bb 31 e8 71 bd 6c de d7 3c
       0.0064555355 -0.002490218 -0.059059326 0.026351176
000360 28 ca 8a bc 2f f5 5c bd 88 4b 62 3c cc db 94 bc
       -0.016942099 -0.053944763 0.013811953 -0.018171214
000370 c2 bc 26 3d 55 b6 17 bd 14 2b 9f 3c 2e 43 09 3d
       0.040707357 -0.03703912 0.019429721 0.033511333
000380 0a 30 48 3d fd 18 7d bc 16 a3 1a bd 30 a5 5a bd
       0.04887394 -0.015447852 -0.037753187 -0.05338019
000390 13 f7 41 3d ab 20 bf 3b a8 db 3e bd 87 a4 3d bd
       0.04735477 0.0058327517 -0.0465962 -0.046299484
0003a0 d8 52 a3 bc ce 25 34 bb 2d 39 79 3c e0 1a 4f bc
       -0.019936964 -0.0027488354 0.015211386 -0.012640685
0003b0 72 c8 48 3d 32 1c b6 3c 5d 5c 0d bd d7 b6 a9 3c
       0.049019285 0.022230241 -0.034511913 0.020717068
0003c0 9e 41 2e 3d 4e 39 0c 3d 73 72 58 3d 8d ee fd 3c
       0.042543046 0.034234338 0.052843522 0.030997539
0003d0 0e b4 ca bc e8 02 9a bb 80 c6 7a bc 3b 23 23 3d
       -0.02474406 -0.0047000535 -0.015306115 0.03982852
0003e0 9b 40 b8 bc e6 91 61 bd 98 1a 20 bd d5 35 a4 3c
       -0.022491744 -0.05507078 -0.03908786 0.0200452
0003f0 df be 78 3c 9c ee 1f bd 72 e0 81 3c f9 ba 8e 3c
       0.015182226 -0.039045915 0.015854094 0.01742314

conv1.mlp.2.bias f4 [256]
000000 11 2e 1e 3d 5b 5f 3d 3d 68 16 9e bc 1b 6a 04 bd
       0.03861815 0.046233516 -0.019297794 -0.032327753
000010 c8 0f 44 3d b8 b6 2c bc 87 22 0b bc 7f 1f cb bc
       0.047866613 -0.01054161 -0.008492119 -0.024795292
000020 43 72 7f bd 1b 46 55 3d 95 91 03 3d fe 0f 59 bd
       -0.062364828 0.05206881 0.03212126 -0.052993767
000030 b0 9f 35 3d 0b c4 84 bd ac 4c 47 bc 74 c3 45 3c
       0.044341743 -0.06482705 -0.012164276 0.012070525
000040 ad 6d 54 bd 12 98 29 3d 18 6e 37 3d 5a 62 e5 3c
       -0.051862407 0.04140479 0.044782728 0.028001
000050 f1 bd 64 bc 4c f9 8e bd 9d 39 55 3d bb e0 5f 3c
       -0.013961301 -0.06981143 0.052056897 0.01366442
000060 09 ca 11 3d cc f3 bb 3c e4 17 87 3c 34 9e 04 bc
       0.035593066 0.0229434 0.016490884 -0.008094359
000070 15 33 6b bd a0 cf 85 bd 20 7b 39 bd c4 68 93 bc
       -0.057421762 -0.06533742 -0.045283437 -0.017994292
000080 15 20 42 3d c4 40 3b bd 5d e2 f6 3c e1 1a c4 bb
       0.047393877 -0.045716062 0.030137235 -0.0059846495
000090 d6 a4 a8 bc 3e 12 06 bc 4b f0 12 3d c3 25 37 3d
       -0.020586412 -0.00818306 0.035873692 0.044713747
0000a0 85 b7 7c bc 05 e3 3c 3d 10 35 6b 3b dc 08 0a bd
       -0.015424614 0.04611494 0.0035889782 -0.033699855
0000b0 62 99 b5 3c ea db 71 3c 82 fd 76 bd 75 6e fa bc
       0.022167865 0.014761904 -0.060300358 -0.030570248
0000c0 87 04 cb 3c 63 f7 75 bc 95 2f 41 bd 44 88 08 bd
       0.024782432 -0.015012595 -0.04716452 -0.033333078
0000d0 91 54 22 3d 3f a5 b3 3c 09 08 3c 3c 63 36 b6 3c
       0.03963143 0.021929381 0.011476525 0.02224273
0000e0 15 84 21 3d 4f e3 70 bd 4b 06 f1 3c 5d 75 ef 3c
       0.039432604 -0.05881053 0.029421946 0.029230768
0000f0 b3 c8 07 3c 3d 63 09 bd 0c d4 14 bd cb 3b ac bc
       0.0082875965 -0.033541907 -0.036335036 -0.021024605
000100 d9 11 ab 3b 44 15 dc 3c 7f 81 aa 3b 71 11 63 bb
       0.0052206335 0.026865609 0.0052034254 -0.0034647847
000110 68 dc 54 bd e2 f6 5c bd 84 fe 97 3c 6c b3 fd bc
       -0.05196801 -0.053946383 0.01855398 -0.030969344
000120 5d c4 3c 3c 12 4a 01 3c bc 68 1e bd af 8f 55 3d
       0.011521426 0.007891195 -0.0386741 0.05213898
000130 27 41 84 3d 14 53 89 3b 39 29 d1 3b 21 d1 7f bd
       0.06457739 0.004190812 0.006383088 -0.0624553
000140 cd b8 ad bc ef 69 1d bc 03 3e 75 3d 4b 85 49 3c
       -0.021206284 -0.009607776 0.059873592 0.012299846
000150 4c b0 81 bd 27 38 2b bd 33 7f 84 bd 33 67 f3 3c
       -0.06332454 -0.041801598 -0.06469574 0.029712295
000160 36 b0 0c 3c 80 7e 2d 3d fb aa ca bc 9b d7 2f bc
       0.008586934 0.042356968 -0.024739733 -0.010732557
000170 8a b5 33 3c d4 ec 0f bd 46 65 96 bc 7d 66 0c 3d
       0.010968575 -0.035137966 -0.018358838 0.034277428
000180 e7 c7 cd 3c 06 58 04 bc 42 28 45 bc c3 59 05 bd
       0.025119735 -0.008077627 -0.012033524 -0.032556307
000190 52 9f 83 3d 6c 93 81 3d ff eb 0a 3d c6 bf d1 3c
       0.06426872 0.063269466 0.03391647 0.02560414
0001a0 e9 be 0d bd 81 c8 25 3a c8 4e 73 bd 7f 90 95 bc
       -0.034605894 0.0006324128 -0.059401304 -0.018257378
0001b0 71 22 09 3d 0e b8 b7 3c 28 40 f7 bb 9c 30 d9 bc
       0.03348011 0.022426631 -0.00754549 -0.026512437
0001c0 dd 36 fc ba c8 8d 8f bd fe 75 c8 3c 1a 23 3d 3d
       -0.0019242425 -0.070094645 0.024470326 0.046176054
0001d0 91 89 2f bd 4c c3 84 bd 56 dd db bc 1c 05 86 bd
       -0.042855803 -0.064825624 -0.02683894 -0.06543943
0001e0 10 1d 69 bd 32 c8 34 3d e6 e3 6f bd 14 88 2a 3c
       -0.05691248 0.044136234 -0.05856695 0.01040842
0001f0 61 f4 f1 bc 2f 8f 44 3d c5 0a 56 bd 20 d9 b1 3c
       -0.029535474 0.047988113 -0.052256364 0.021709979
000200 dc 03 d8 3c 62 e8 c9 bc 20 c2 29 3d 0a 48 78 bc
       0.026369028 -0.024646942 0.041444898 -0.015153894
000210 f9 99 df bb ee 8c 15 bd bb 94 bf 3c 31 55 1a 3c
       -0.006823775 -0.036511354 0.02338635 0.009419725
000220 89 41 d6 3b cd 8c aa 3a d2 e4 dc bc bc 07 27 bd
       0.006538574 0.0013011933 -0.026964579 -0.04077886
000230 52 42 3e 3b 2e e4 57 bd f3 c4 bc 3c 54 18 13 3d
       0.002903123 -0.052707843 0.023043131 0.035911873
000240 4b c4 1e 3d 20 8b 6f 3d 2c ff 73 bd 28 04 32 bd
       0.03876142 0.05848229 -0.059569523 -0.043460995
000250 5a 99 26 bd d7 bf c7 bc 3b b8 0c 3d a6 bf 82 bd
       -0.04067359 -0.024383469 0.034355383 -0.0638421
000260 13 29 16 bc 1d e4 38 bc 8d ba a5 bc c9 66 4f 3d
       -0.009165066 -0.011284855 -0.020230556 0.050635133
000270 07 80 26 bd cd bc 3b bc 40 56 84 bd c8 7f 3b 3d
       -0.04064944 -0.011458588 -0.064617634 0.04577616
000280 62 30 46 3c ad 93 a2 bc df 69 df 3b 59 e1 e2 bb
       0.012096496 -0.019845808 0.0068180407 -0.006923836
000290 81 09 13 3d 2c 16 d6 bc f6 4d 98 3c f3 f3 00 bb
       0.035897736 -0.02613362 0.018591862 -0.0019676655
0002a0 13 2b 2d bc e9 99 7a bd 2a bc a5 ba 7d 8a 93 b9
       -0.010569352 -0.061181936 -0.0012644578 -0.00028141207
0002b0 e9 d2 37 bd 63 17 fa 3c 22 ab f0 bc 8d e0 5b 3c
       -0.044878874 0.03052873 -0.029378477 0.013420236
0002c0 b2 dd c3 bc c7 21 94 bd 70 25 e1 bb e6 6b f3 bc
       -0.023909424 -0.07233005 -0.006870918 -0.029714536
0002d0 e7 8e 9b bc 76 46 13 3c c3 8d 4b bd 17 ae 2d 3c
       -0.01898904 0.008988967 -0.04969574 0.010600588
0002e0 6a fd f9 3c fb 86 a1 3c 20 54 a8 3b 0c b6 16 bb
       0.030516345 0.019717684 0.0051369816 -0.0022996692
0002f0 e5 af f2 3b 42 03 5e bb 56 44 27 3b 78 f2 5a 3d
       0.007406222 -0.0033876454 0.002552291 0.053453892
000300 63 c9 91 3c ca 95 5a 3c 5a bf 3f 3c a4 45 22 3d
       0.017796224 0.013341377 0.011703337 0.039617196
000310 fa 11 48 bd 07 38 da 3c e0 6a 57 bd 07 cd 2b 3d
       -0.04884527 0.026638044 -0.05259216 0.041943576
000320 eb b5 25 3c 47 e3 82 bd ee 54 99 bb de 15 89 bd
       0.010114173 -0.06391006 -0.004679314 -0.06693624
000330 07 29 2e bd 8a 9f c0 3c fd d4 ce 3c 69 76 ce 3c
       -0.042519595 0.023513574 0.025248045 0.025202947
000340 1d 12 b8 bc 25 1b f5 3c a2 ee 09 3c be 86 4c 3d
       -0.022469575 0.02992017 0.008418711 0.049933188
000350 ab b0 6f 3c 14 70 ed bc ce 4f 52 bd 9f 04 68 3d
       0.014629523 -0.028984107 -0.05134564 0.056645032
000360 bc 1d 27 38 9f 11 a3 bb 4f 01 39 bd 8b 4d 61 3d
       3.9843595e-05 -0.004976466 -0.045167264 0.05500559
000370 f2 29 86 bd 2f 19 7c 3c 23 c6 5e bd 8b be 58 bd
       -0.06550969 0.015386864 -0.054388177 -0.05291609
000380 28 76 ff 3c 4f d0 13 bd f3 58 17 bd 95 8a 07 bd
       0.031184271 -0.03608733 -0.036950063 -0.033091146
000390 d0 a3 c1 3c 21 4c 3c bd 79 58 36 3d 32 f6 0f bd
       0.023637682 -0.04597104 0.044517968 -0.0351469
0003a0 2c 30 2f 3d 64 35 9d 3a d3 8c 3d 3c 7f 5b b3 bb
       0.04277055 0.0011994061 0.01156922 -0.0054735537
0003b0 c7 15 62 bd 55 5a 3f bd ee c0 66 bd 5a f7 50 3d
       -0.05519655 -0.046717007 -0.056336336 0.051017143
0003c0 2a 46 cc bc df 42 2c 3b 2f 36 27 bd 87 cf ee bc
       -0.0249358 0.0026284975 -0.040823158 -0.029151691
0003d0 40 12 0a bd c9 27 19 bc 41 1c 3f 3d 98 9a b9 bc
       -0.03370881 -0.009347864 0.046657804 -0.022656724
0003e0 ec fd 2b bd 3b 60 50 3d 3f 89 e7 bc 4f 46 92 bc
       -0.041990206 0.050873023 -0.028263686 -0.017855791
0003f0 85 1d e3 3c 8e 5b 82 bd 8c e2 39 3b 6a 47 2e bd
       0.027724037 -0.06365119 0.0028363792 -0.042548575

conv2.mlp.0.weight f4 [256, 259]
000000 a0 2d 3b bd 84 01 48 3d 5e 55 22 bd 89 d8 4f 3d
       -0.04569781 0.04882957 -0.039632194 0.050743613
000010 de 59 3d 3b 07 07 7f bc 8a 1a e5 bc af 3d f7 bc
       0.0028892676 -0.01556564 -0.027966756 -0.03018078
000020 64 cd b0 b8 8a 1b 27 bd db 53 47 bd d8 7d 40 3d
       -8.430591e-05 -0.040797748 -0.048663955 0.046995014
000030 52 0c ef 3c 22 0b 93 bc dd 67 53 3d d1 a5 0b bd
       0.02918068 -0.017949644 0.051612724 -0.03409368
000040 79 f1 47 3c 7c 00 63 3d 87 04 11 bd 5d 7e 3d bc
       0.012203568 0.055420384 -0.03540471 -0.011565772
000050 15 4c 2b bc 36 8e d6 3c 07 e9 00 bd bc 0f 4b bd
       -0.010455151 0.026190858 -0.031472232 -0.049575552
000060 ba a7 0a bd 2d 13 b7 bc cd 40 7a bd 91 10 09 3d
       -0.033851363 -0.02234801 -0.061096955 0.033463065
000070 9d 6d 22 bd cd 79 a6 ba 2b 66 d2 3c fe 97 77 bb
       -0.039655317 -0.0012701094 0.025683483 -0.0037779803
000080 21 45 59 3a 4f c5 61 3d 52 6e 1d 3d ca 15 2d 3d
       0.0008288194 0.05511981 0.038435288 0.042257108
000090 81 cc e7 bc 15 3f 1f bd e1 2c 49 bd 58 0f 66 b7
       -0.028295757 -0.03887852 -0.049115065 -1.3712641e-05
0000a0 32 e3 5b bc c4 21 5d 3d 6b 6e 08 bd c9 26 50 bd
       -0.013420867 0.05398728 -0.033308428 -0.05081824
0000b0 bb b5 0a bd b2 a1 f2 3c c4 71 09 bc aa 68 10 3d
       -0.033864718 0.029618118 -0.00838894 0.035256065
0000c0 bb 7c aa bb 3f 40 04 bc 93 74 e5 3b 6a c9 53 bd
       -0.0052028573 -0.008071958 0.007002422 -0.051705755
0000d0 12 0b c0 3c 24 23 07 3d c8 55 8e bb c8 93 b5 bc
       0.023442779 0.032992497 -0.004343722 -0.022165194
0000e0 83 a1 3e bd a4 93 d5 bc b7 a9 50 bd f9 50 89 3c
       -0.04654075 -0.026071377 -0.050943103 0.016762244
0000f0 6f 20 6a bd 19 6e 1a bb 98 e8 fb 3b ff b7 30 3c
       -0.057159837 -0.0023564158 0.0076876394 0.010786056
000100 ab 06 36 bd 6d 8b 09 bd b1 9f 4d 3d 6d c8 e0 ba
       -0.044439953 -0.033580232 0.05020112 -0.0017149575
000110 52 6e 15 3d 9b cf b4 bb 0d 57 2c bd b5 10 09 3d
       0.036482163 -0.0055179126 -0.042075206 0.0334632
000120 b5 9d 45 3d db 02 e7 bc a2 04 36 bd 09 6f c2 bb
       0.048246104 -0.028199604 -0.044438012 -0.0059336466
000130 32 0f 57 3d 9d 2e 1a bd 27 64 26 bd 69 67 07 bc
       0.052504726 -0.03764211 -0.040622856 -0.008264401
000140 9f b1 f1 3c 94 a6 58 3d c8 6d c7 bc eb 4d 87 bc
       0.029503642 0.052893236 -0.02434434 -0.016516646
000150 1a ff d5 3c 5f ce 41 3d cf 61 44 bd 22 9e 9d 3b
       0.026122618 0.04731595 -0.04794484 0.0048101107
000160 73 cc 34 bc 66 52 24 3d 41 97 e7 3b 4e f1 75 bd
       -0.011035073 0.040117644 0.0070675914 -0.06004458
000170 31 1e 85 3b c9 bb cb bc 8f 32 d5 bc 52 11 6a bb
       0.004062437 -0.024869816 -0.026025085 -0.003571589
000180 f4 95 57 bd 83 ae 10 bc 48 94 f6 3a 88 35 a7 bb
       -0.05263324 -0.008830669 0.0018812502 -0.005102817
000190 b8 cf 31 bd ae 7b 84 bd 96 03 cc 3a f9 0d 80 3b
       -0.043410987 -0.064689025 0.0015565034 0.0039079157
0001a0 11 95 23 bd a8 14 14 bd 10 1c 58 3b d7 4c 76 bd
       -0.039937083 -0.03615251 0.003297571 -0.060131874
0001b0 9b a8 9d bc fe e9 b6 3c e1 ab a2 3a 25 0e f9 3b
       -0.019245436 0.022328373 0.0012410843 0.007600563
0001c0 d4 a0 86 bd 12 b3 0a 3d 50 e7 f4 bc 52 28 cd bc
       -0.06573644 0.03386218 -0.029895455 -0.02504364
0001d0 27 d3 de 3b 3e d5 20 3c 7d de 0a 3b e3 f1 6d 3c
       0.0068000737 0.009816466 0.0021189742 0.014523002
0001e0 81 ff 63 3d 41 f6 f6 3b d6 6a c5 bc 55 07 69 3d
       0.05566359 0.00753668 -0.024098795 0.056891758
0001f0 1c 9f 88 3c 15 86 84 bd a3 b7 fa bc 3d 09 d0 bc
       0.016677432 -0.064708866 -0.030605143 -0.02539503
000200 b5 00 02 bd 35 cf 42 3d 5d 49 98 bc 81 af c9 bc
       -0.031738956 0.04756089 -0.01858967 -0.02461982
000210 a5 4b 5a bd 45 ec 30 bd 19 3c 9b 3c 9f 33 82 bc
       -0.053294796 -0.043194074 0.018949555 -0.015893755
000220 4f ba d5 bc f0 a9 49 bd 95 a1 52 bd fa 22 53 3d
       -0.026089815 -0.04923433 -0.051423628 0.051547028
000230 dd bc 25 bd 7c 93 aa bc 47 ef 05 3c 6d a8 11 3c
       -0.040463317 -0.02082228 0.008174724 0.0088902535
000240 a4 e3 e3 3c 8b f3 33 3d 17 9b 95 3c 42 a2 05 3d
       0.027818508 0.043933433 0.01826243 0.032625444
000250 94 18 ea 3c 7a 8a 0a bd 95 61 22 bd 82 7f 5a 3d
       0.028576173 -0.033823468 -0.039643843 0.053344257
000260 7c cf 53 3c b3 a3 5e 39 64 e5 3b bd 67 a6 1c bd
       0.012927886 0.00021232553 -0.04587306 -0.03824463
000270 f4 92 9a 3c 29 54 4c 3d dd 3a 45 3d 20 d3 22 bd
       0.0188689 0.04988495 0.04815184 -0.039752126
000280 7b 52 40 3b c3 e7 a3 bc e2 03 5e 3d f5 a2 78 bd
       0.0029346037 -0.020007974 0.05420292 -0.060702283
000290 cc 11 9a bc 61 15 2d 3d c2 6f f6 3b 61 dd 46 3d
       -0.018807314 0.042256717 0.007520647 0.048550967
0002a0 2e 95 6e bc 1d 2e 13 3d 0e 3c 13 3d 18 82 27 3d
       -0.014561934 0.03593265 0.035945944 0.04089555
0002b0 e2 2b 5d 3d 7f 8f c4 3c 5e 17 83 bd fb f3 4a 3d
       0.053996928 0.023994206 -0.06400941 0.049549084
0002c0 8b 4e f2 bc 1b 73 47 bd c6 70 08 3d 0b 5e 85 3c
       -0.029578468 -0.048693758 0.033310674 0.016280195
0002d0 51 63 99 bc be 0f ef 3c f9 5f 54 bd f0 1c f5 bc
       -0.018724116 0.029182311 -0.05184934 -0.029921025
0002e0 4e a4 3c bd 90 df 86 bd 22 35 0c bd f7 d9 a3 3c
       -0.04605513 -0.0658561 -0.03423036 0.020001395
0002f0 4f 48 31 3d 85 fc e8 bc e3 3a bd 3c c5 54 07 bd
       0.04328185 -0.028440723 0.023099368 -0.033039827
000300 e3 9e 66 3d 4c b1 8e 3b e0 19 d6 3c 0a 6d 34 3d
       0.05630387 0.0043546315 0.026135385 0.0440493
000310 3c 2d ff bc 39 7b 89 3a bf 1f 0c bd 94 9d 17 bc
       -0.0311495 0.0010488994 -0.034209963 -0.009253878
000320 12 16 12 bd 34 c6 e7 3c 4a b5 4e 3d d0 cb 28 bd
       -0.03566558 0.028292753 0.05046586 -0.041209996
000330 b0 17 ab bb 66 ed fe bb fb 2f cd 3c 5a a9 6f 3d
       -0.0052213296 -0.007779765 0.025047293 0.058511116
000340 a1 6f f1 3c 45 5b db 3c 91 84 15 3d 75 5e 1c 3d
       0.029472174 0.02677692 0.03650338 0.03817602
000350 91 3e 3e 3d ae db 25 3d 27 7b a7 3c 59 30 76 bc
       0.046446387 0.040492706 0.020444466 -0.015026175
000360 d1 df 33 b5 ff 5c 19 bc 88 a6 33 bd 7f 13 a1 bb
       -6.700839e-07 -0.009360551 -0.04385999 -0.004915654
000370 6d e4 01 3b 8a 6a 99 3c fe ec 25 bd c6 8f b8 3a
       0.001981999 0.01872756 -0.040509216 0.0014080934
000380 39 14 3f 3d 50 9d 45 3c dd 3c 37 bb 0f b9 fc 3c
       0.046650145 0.012061432 -0.0027959861 0.030849962
000390 00 84 80 3c 53 b0 4e bc 52 52 0c bd ee f2 6d bd
       0.015687943 -0.012615281 -0.034258194 -0.058093004
0003a0 26 e2 2b bd b7 91 41 3d 55 5b 3f 3d 5c 27 6a bb
       -0.04196372 0.047258105 0.04671796 -0.0035729026
0003b0 de b1 01 3d 12 a3 13 bd e6 92 22 3c 5f 63 8b 3b
       0.031663768 -0.036044188 0.009922719 0.0042537893
0003c0 b0 e7 bd bc cc bf 70 bd 76 38 55 bd cd 99 1c 3d
       -0.023181766 -0.05877666 -0.0520558 0.038232613
0003d0 0e c4 48 bb e1 88 1e 3d 28 63 0c 3d a6 f0 f1 bb
       -0.0030634436 0.038704757 0.03427425 -0.007383424
0003e0 63 a2 4a bc cb af 83 3c ba 27 23 3d 4b c8 5f bd
       -0.012367818 0.016075036 0.039832808 -0.054634374
0003f0 16 d8 57 bc e1 66 c2 bb 21 a5 70 bd 57 72 f2 3c
       -0.0131740775 -0.0059326743 -0.05875123 0.029595537

conv2.mlp.0.bias f4 [256]
000000 62 5f 8a bd f3 8e 81 bb e7 63 24 3d b1 84 59 3d
       -0.06756474 -0.0039538085 0.040134337 0.05310506
000010 72 7f 5b bd 3b e7 9a bc d7 c5 6f bd ed 5d 81 bd
       -0.05358834 -0.018909087 -0.058538284 -0.06316743
000020 42 a3 94 3c 1d db 11 bc 50 fc 6c 3c 37 a1 db 3c
       0.018144254 -0.008902338 0.014464453 0.026810272
000030 e4 8e 76 bd 2d 2c e6 bb de ab 51 bd 2f fa 91 bc
       -0.060194865 -0.007024309 -0.051189296 -0.017819492
000040 b2 c3 27 3d 0e 8f 5e bd 61 1c 47 bc 79 89 78 bd
       0.040958114 -0.054335646 -0.012152762 -0.06067798
000050 e2 22 a1 3b c8 63 a0 bc a4 6d 3e 3c 77 b1 19 bb
       0.0049174884 -0.01957883 0.01162282 -0.0023451725
000060 93 07 81 bd 98 95 6c bd 88 92 50 3d 49 d7 12 3d
       -0.06300273 -0.05775985 0.050920993 0.035849843
000070 f1 d1 53 3d f4 76 db 3b 6d b0 fe 3b b4 d4 ab bb
       0.051713888 0.00669753 0.0077724964 -0.005243862
000080 da c0 1d 3d d5 2e ce 3c 1a 41 34 bd c2 48 81 bd
       0.038513996 0.025168816 -0.0440074 -0.063127056
000090 34 f9 fd ba f8 6f 37 bd ce 5b 55 3d d0 89 35 3c
       -0.0019376636 -0.044784516 0.052089505 0.01108022
0000a0 db 21 3b 3d 12 0f db bc 4a 99 4f 3d cb f1 06 bc
       0.045686584 -0.026740585 0.050683297 -0.008236359
0000b0 30 aa 32 bc 09 ca 7b bd 28 c9 19 3d 91 c9 91 3c
       -0.010904834 -0.061471973 0.037545353 0.01779631
0000c0 4c cf 94 3c 19 b9 8f 3c 7c 63 09 3d a2 4a 33 3c
       0.018165253 0.017544316 0.03354214 0.010943087
0000d0 03 c2 44 bc cc 85 b2 3b a8 dd 8a 3b b8 ca ca 3c
       -0.012009147 0.0054480787 0.0042378493 0.024754867
0000e0 2c 78 ff 3c 48 44 17 3d e4 eb 7c 3c 4f ac 96 bc
       0.031185232 0.036930352 0.0154371 -0.01839271
0000f0 9d cb 8d bd d3 8f 1c bc c8 43 0e bd dd d7 e4 3c
       -0.06923602 -0.009555775 -0.03473261 0.027934963
000100 08 cb fd ba 14 1e 7f bd 06 e6 84 bd e3 c0 fa bb
       -0.0019362876 -0.062284544 -0.06489186 -0.0076523884
000110 16 e8 45 bd f8 b1 1c 3d 9f cb a6 bb e8 43 df bc
       -0.048317038 0.03825566 -0.0050901915 -0.02725406
000120 9f c8 2f 3d 5b 09 a0 3c 4c fb 64 3d 1c 59 61 bc
       0.042915937 0.019535711 0.055903718 -0.0137541555
000130 b6 59 48 bd 22 cb 87 bc 23 87 43 bd 45 d3 5e bd
       -0.04891368 -0.016576353 -0.0477363 -0.0544007
000140 99 ad 76 bd fb 3f ea 3b 3d 27 80 bd a6 08 0d bd
       -0.06022415 0.0071487403 -0.06257484 -0.034432076
000150 9b 5f 8c bd 01 3b aa bc 7d f0 d1 3c a4 7b bb 3a
       -0.06854173 -0.020780088 0.025627369 0.0014303816
000160 ab 81 82 bd 70 79 3b 3b 22 98 54 3d 19 a1 0c bc
       -0.063723885 0.0028606318 0.051902898 -0.008583331
000170 f0 13 37 3d 31 45 a1 3c 9a 02 5d ba 0f a1 3c bd
       0.04469675 0.019686313 -0.00084308686 -0.046052035
000180 b7 78 1d 3d 83 bd 72 bd b0 36 e2 3c 0d 10 ef bb
       0.0384452 -0.059262764 0.027613968 -0.0072956146
000190 a9 79 87 bb f2 29 68 bd 0d 25 16 3d e2 66 2f bc
       -0.004134376 -0.056680627 0.036656428 -0.0107056815
0001a0 a9 2a 8c bc 40 13 67 bd 26 f2 7e bd c3 d8 09 3d
       -0.017110186 -0.056414843 -0.06224265 0.033653986
0001b0 0c ee 1b bd 45 ba e1 3c fb 6a b4 bc 2a 3c f5 3c
       -0.038068816 0.02755464 -0.022023669 0.029935915
0001c0 2a 30 75 3c 62 fa 35 3d 6e 6d c7 3c 66 5b 6a bd
       0.0149650965 0.044428237 0.024344172 -0.05721607
0001d0 57 ea 81 3c a8 74 8a 3c 39 2e 6e bd 5b b2 fc bc
       0.015858812 0.01690133 -0.05814955 -0.030846765
0001e0 3d 97 12 3d d0 11 5c 3d 32 05 2a 3d 3f 75 95 3c
       0.035788763 0.053727925 0.04150886 0.018244384
0001f0 ff e7 79 bb f8 9e e2 ba 71 6c 4a bc 69 5c 0b 3c
       -0.0038132665 -0.0017289808 -0.012354956 0.008505919
000200 15 21 5e bd e6 2c 79 bd d0 2f 10 3d 9e 87 72 bd
       -0.05423077 -0.060833834 0.035201848 -0.059211366
000210 28 f9 10 bd a5 db 2c bd 6e 7a dd 3c a3 ff 32 bd
       -0.035393864 -0.042201657 0.027035918 -0.043700825
000220 3a a7 74 bd f2 eb df bc 8e 41 17 bd 41 de b3 bc
       -0.059729792 -0.027334187 -0.036927752 -0.021956565
000230 35 34 24 bd b6 2a f7 bc 5c b9 0f bc 76 98 14 3c
       -0.04008885 -0.030171733 -0.00877222 0.009069553
000240 c8 cf 07 bd dd 68 6e 3c db 4c 6d bd 28 eb 13 3d
       -0.03315714 0.014551369 -0.057934623 0.036112934
000250 bd cc 5c 3d 54 48 97 bc f4 a1 2a bd 7d d0 b3 3b
       0.05390619 -0.018467106 -0.041658357 0.0054875
000260 f4 19 fa bc 95 e5 0a bd c6 21 68 bd 81 d1 ca bc
       -0.030529954 -0.033910353 -0.056672834 -0.024758102
000270 36 fd ef ba 3c 7a d9 3c 0f cd a6 bc 3d 9b 0e bd
       -0.0018309716 0.026547544 -0.020361451 -0.034816016
000280 58 1e 05 3d 64 00 28 bc d9 b0 cb 3c 93 7a a4 3b
       0.03249964 -0.010253999 0.024864601 0.005019495
000290 3e fc 9a 3a ee d7 a5 bb 74 41 81 bd 47 aa a5 3c
       0.0011824442 -0.005061141 -0.06311312 0.020222796
0002a0 59 5e 2a 3d a6 3e ca 3c bd d1 53 3d d4 0b 39 bc
       0.041593883 0.024688076 0.051713694 -0.011294324
0002b0 6a e7 84 bc 11 36 2d 3c 39 42 99 bc 56 cc 25 bd
       -0.016223628 0.0105719725 -0.018708335 -0.040478073
0002c0 e4 9f 19 bd 62 98 8d 3c 12 98 31 3c dc 27 0f 3d
       -0.037506 0.017284576 0.010839479 0.034950122
0002d0 04 7d e3 3c 79 43 09 bd 53 f0 26 3d 97 5b 2c bd
       0.027769573 -0.033511613 0.040756535 -0.042079534
0002e0 ed ef 05 bb 6e bb 80 bd 59 13 6a bd c3 d0 36 bd
       -0.0020437196 -0.062857494 -0.057147358 -0.044632684
0002f0 f4 66 77 bd 6b 69 5c bd b3 7b 36 3d e4 1f 6c 3d
       -0.060400918 -0.053811472 0.044551563 0.0576476
000300 21 35 c9 3a da 02 3c bd e3 6b 99 bc 64 74 c9 bc
       0.0015350917 -0.045901157 -0.018728202 -0.024591632
000310 e1 c1 27 bd 1e 9f 03 3c 57 1b 9f 3c 65 30 80 3b
       -0.04095638 0.008033542 0.019422216 0.003912019
000320 da 3d 56 3d 8c 96 59 3d fa 9f bd bb 3b 22 da 3b
       0.05230508 0.05312209 -0.005786893 0.0066569126
000330 c3 5a 63 3d 55 18 28 3d 27 be 34 3b 3b 29 35 3c
       0.05550648 0.04103883 0.002757916 0.011057193
000340 20 17 0b 3d 5e 7c 51 bd 9f 5d e6 ba f3 22 0b 3d
       0.0339576 -0.051143996 -0.0017575509 0.033968877
000350 b1 43 26 bd ef e0 d5 3b fe 9c 3b bd c2 79 18 3d
       -0.0405919 0.0065270583 -0.045804016 0.037225492
000360 77 50 3d 3c e2 54 01 bd 1b 68 85 bc e3 e6 ab bc
       0.011554829 -0.03157509 -0.016284993 -0.020984119
000370 b9 15 2d 3d 43 6b 3d bd a8 46 f9 bc 01 99 ff 3c
       0.042257044 -0.04624487 -0.0304292 0.031200888
000380 b1 82 f0 bc 8e 89 27 ba fc 5c 81 bd 4e af 42 3d
       -0.029359194 -0.00063910417 -0.063165635 0.047530465
000390 a0 24 7f bd 9d ef e7 bb 44 6d 4e bc 90 03 75 3d
       -0.062290788 -0.0070781247 -0.012599293 0.05981785
0003a0 c2 87 30 bd 38 46 cb 3c cd ba 37 3b b4 6c f6 3c
       -0.04309822 0.024813756 0.0028034926 0.03008113
0003b0 dc 74 11 3c e3 7d 8b bc bc db 91 bc e4 ee 53 bd
       0.008877959 -0.0170278 -0.017804973 -0.051741496
0003c0 36 8c b7 3c 83 6b 34 3d d0 80 d3 bc 4d 98 34 bc
       0.022405725 0.044047844 -0.025818259 -0.011022639
0003d0 4e 12 8c 3c 8e 52 7d 3d ac 74 87 3b 9c b9 36 3d
       0.017098572 0.06184631 0.0041337814 0.044610605
0003e0 25 e8 f5 bb ba 9d 4f 3d 81 81 24 bc 8c e7 43 bb
       -0.0075044804 0.05068753 -0.010040642 -0.0029892651
0003f0 dc 2e 65 bc 4d 74 e0 bc cf 07 a0 3c 3a eb 30 bc
       -0.013988223 -0.027399207 0.019534973 -0.01079827

conv2.mlp.2.weight f4 [256, 256]
000000 c1 cb 70 bd 59 b9 9c 3c f0 49 39 bd 08 53 29 3c
       -0.058788065 0.01913135 -0.045236528 0.010334738
000010 2d 0a 94 3c bf c4 22 bd c4 69 70 bd f2 39 6a bb
       0.018071258 -0.039738413 -0.058694616 -0.0035740105
000020 51 62 4b 3c e4 96 06 ba d4 94 18 3d e4 f0 4e bd
       0.012413577 -0.0005134179 0.03725131 -0.0505227
000030 ba 8d c6 bb 1f b3 50 bd 54 7d 2c 3d 00 9b e8 36
       -0.0060593756 -0.050952073 0.04211171 6.932183e-06
000040 66 31 02 bd 48 65 5a bd b4 a5 4b 3d f2 69 13 bd
       -0.03178539 -0.053319246 0.049718574 -0.03598971
000050 a2 47 54 bd 11 82 1a 3d 73 be 9f bc 2d ad 42 bc
       -0.051826127 0.037721697 -0.019499993 -0.011882109
000060 31 6e 1d bd ef eb 97 3a 11 ee 59 3d e1 31 e9 3c
       -0.038435165 0.00115907 0.053205553 0.028466167
000070 e3 13 e4 bc f6 c5 8e 38 82 58 a6 bc 8e 54 20 3d
       -0.027841514 6.807961e-05 -0.020305876 0.039143138
000080 d0 8a 15 bd 9e 00 01 bd 00 81 10 3d c4 1c 07 3c
       -0.036509335 -0.03149473 0.035279274 0.008246604
000090 94 67 20 3c ee d7 ce 3c 26 83 df bc 57 9b 6c 3b
       0.00979032 0.025249448 -0.027284216 0.0036103332
0000a0 06 26 80 bc 50 78 50 3d a2 6a c9 3c 6c 4e 88 3c
       -0.015643131 0.05089599 0.02458698 0.016638957
0000b0 89 f0 74 3a e7 ac b2 3c 03 d3 50 bd bf ec fa bc
       0.0009343704 0.021810962 -0.050982486 -0.030630467
0000c0 bf 74 7f 3c ee 5a 84 bd 3e 5c 37 bd 9d 56 bb 3c
       0.015591799 -0.06462656 -0.044765703 0.022868449
0000d0 61 52 2e 3a 92 c3 f2 bb ac 62 f0 bc f9 f6 a4 3b
       0.00066498487 -0.0074085677 -0.029343925 0.0050343242
0000e0 10 11 df bc 5b 7e e9 bc 5f cc c8 3b 9a 5c 57 3c
       -0.027229816 -0.028502634 0.0061278786 0.0131446365
0000f0 53 76 81 bd cc 63 0d 3d ee d3 5b bd b8 ca 62 3c
       -0.06321397 0.034519 -0.05366891 0.013842277
000100 64 1c 9d b8 39 06 67 3d 1b 78 07 3d 22 93 31 3b
       -7.4916315e-05 0.05640242 0.033073526 0.0027095755
000110 92 9f 2e 3c ab a5 11 3d 50 71 59 3c f9 d1 34 3d
       0.010658162 0.035558384 0.013271645 0.044145558
000120 37 55 bf bc 6b f2 ca bc 75 18 2c bd c6 07 65 bc
       -0.023356063 -0.024773797 -0.04201551 -0.013978904
000130 8a ad 68 3d d6 ce 29 3d 92 45 51 bd 0e f1 2b bc
       0.056806125 0.04145702 -0.051091738 -0.010494484
000140 1a 98 3b bb f7 ca 97 bb a8 87 5b bd 09 4d 0b bd
       -0.0028624595 -0.0046323496 -0.05359617 -0.034009013
000150 e3 15 67 bd aa e3 d9 34 9b eb 91 bc f8 87 1c bd
       -0.056417357 4.0585047e-07 -0.01781254 -0.038215607
000160 ec 71 81 b9 c2 6a 6f 3c e1 36 8a bd cd 3b 7c bc
       -0.00024689676 0.014612855 -0.067487486 -0.015395117
000170 3f 4a 63 3d 89 c4 89 bb 56 9e 0d 3d 91 12 d9 bb
       0.05549073 -0.004204337 0.03457483 -0.0066245277
000180 11 04 a6 bc 2e 83 1f bd 19 b8 0f 3d bd 5f 03 3c
       -0.02026561 -0.038943462 0.03508768 0.008018431
000190 43 6f d4 3c e4 75 ad bc 33 58 f0 bc e0 bd 32 bd
       0.02593196 -0.021174379 -0.029338932 -0.04363811
0001a0 7f 36 b2 3c 02 af 3f bb 3c 60 73 3d f4 a3 a6 3c
       0.021754501 -0.00292486 0.059417948 0.02034185
0001b0 36 24 4c 3c 8a f9 4e 3d ea 71 41 3c ee 80 57 3d
       0.012459805 0.050530948 0.011806944 0.05261319
0001c0 63 4e 2a 3d 51 c0 02 bd a9 67 27 bd 67 a7 cc ba
       0.04157866 -0.03192169 -0.040870342 -0.0015613855
0001d0 1a ad b7 3c 70 29 87 bc 26 bf 83 bc 47 7b 54 3c
       0.022421408 -0.016499251 -0.016082358 0.012968845
0001e0 e5 db 32 bd 11 09 84 bd 9d 14 81 3c 79 7f 2f bd
       -0.04366674 -0.06447042 0.0157569 -0.042846177
0001f0 da 34 8d bb 8f 4a 75 37 67 60 01 bc 04 40 91 3a
       -0.004309279 1.46204975e-05 -0.007896519 0.00110817
000200 de f3 c3 bc cb 31 f2 bc 8d 07 23 bd 53 64 78 3c
       -0.023919996 -0.029564759 -0.039802123 0.015160638
000210 52 1a 0f 3d cf 50 80 bc 44 7f ba 35 f6 2b 3b 3d
       0.03493721 -0.015663533 1.3895119e-06 0.04569622
000220 38 2f 37 3d 0f 35 b2 bb 73 e8 01 3d e9 cd 5f 3d
       0.044722766 -0.005438454 0.03171582 0.05463973
000230 46 c2 e9 3c d3 b9 48 bd 57 1a ab bb 74 ae 30 bd
       0.02853502 -0.04900534 -0.005221646 -0.04313512
000240 72 a5 1f 3d e8 f8 87 3b 75 5d 16 3d 42 f0 f9 3b
       0.03897614 0.004149545 0.03671022 0.007627518
000250 56 98 1b 3d c9 f3 3d 3d 8f ab 6b 3d fe c7 1c bc
       0.037987076 0.04637507 0.057536658 -0.009569166
000260 db 25 e5 3c 8a 64 fd 3c 16 4c 7f bc 7b a5 f1 3c
       0.027972152 0.03093173 -0.015582105 0.029497853
000270 9d fb 2c 3d 95 00 60 3c 3b 08 85 3c 62 ef 8b 3b
       0.042232145 0.013672014 0.016239276 0.00427048
000280 48 8e 75 bd 24 08 7b bb 19 c6 04 bd 82 eb 41 bd
       -0.059950143 -0.0038304413 -0.032415483 -0.04734374
000290 81 01 13 3d 78 8f 01 3d c2 42 f3 3b f0 01 bd bc
       0.035890106 0.031630963 0.0074237296 -0.023072213
0002a0 bf a9 91 bc e4 d4 2e 3d 8a 48 01 bd 51 28 13 3d
       -0.017781137 0.042683497 -0.03156332 0.03592712
0002b0 b7 dd de 3c c9 d4 3f bd 24 99 2d bd 24 0e 6b 3c
       0.027205331 -0.046833787 -0.042382374 0.014346633
0002c0 b7 37 92 bc 9e e8 7b 3c 0b 7d 4d bd 7f 79 4c 3d
       -0.017848833 0.0153752845 -0.05016808 0.049920555
0002d0 b5 55 10 bd b1 fe 7e b8 e2 14 07 bd 24 f2 31 3d
       -0.035237987 -6.079552e-05 -0.0329789 0.043443814
0002e0 a1 0e 28 3a 86 9c a4 3c 9d 15 a5 bb b0 fe 40 bd
       0.0006410871 0.020094167 -0.005037977 -0.04711789
0002f0 f4 04 b9 3c 41 f7 10 3d aa 0b cf 3c 59 4d 7b bd
       0.02258537 0.03539205 0.025274117 -0.06135306
000300 68 fb 1f 3d 30 3a 53 3d b3 56 55 bd 27 64 5a bd
       0.03905812 0.051569164 -0.052084636 -0.05331817
000310 b5 90 21 3d ce 8f 87 b9 b1 e4 e6 bb 4f 2d 13 bc
       0.039444644 -0.0002585635 -0.007046305 -0.00898297
000320 af 79 e4 bc 4f 5d 44 bd 6a 24 56 37 1a fc 66 bd
       -0.027890055 -0.04794055 1.2763872e-05 -0.056392767
000330 fe c8 6c 37 8c d3 3c bd 61 82 7a bc 65 2e a4 3a
       1.4113493e-05 -0.046100184 -0.015289874 0.0012526034
000340 fc b4 57 bc 82 16 12 3d bb ca 11 3d bd 1c 83 bd
       -0.013165709 0.035665996 0.03559373 -0.06401966
000350 b3 9e 64 3c bb dd 05 3d 4f 54 48 bd c5 89 a1 ba
       0.0139538525 0.03268216 -0.048908528 -0.0012324384
000360 64 ae 2b 3d 77 45 9e bc 15 4a 9a 3c a6 8e c2 b5
       0.04191436 -0.019320233 0.018834153 -1.4495643e-06
000370 aa 81 46 bd c8 ac ae 3c c4 9a 1c bd 3c 41 13 3d
       -0.0484635 0.021322623 -0.038233534 0.035950884
000380 e5 c0 0e 3d f5 9e 1a 3d 10 47 55 bd 39 8e 67 bd
       0.034851927 0.03774925 -0.052069724 -0.05653212
000390 a3 18 d1 bc a1 c6 06 bd ae 21 27 3d f1 16 42 bd
       -0.025524443 -0.03290427 0.040803604 -0.04738516
0003a0 c2 24 12 bd 17 ce 84 bc 50 08 20 bc 75 3a 29 3d
       -0.035679586 -0.016211553 -0.009767607 0.041315515
0003b0 f5 65 2a 3d 8f bc ee bc 5d 18 4c 3d f4 52 80 bd
       0.04160114 -0.029142646 0.049827922 -0.06265822
0003c0 ff b5 eb bc 88 e0 f9 3c 7a 4b b8 bc 15 96 65 bc
       -0.028773306 0.030502573 -0.022496928 -0.014012833
0003d0 a4 19 05 bc 20 27 94 3c 2d e5 a4 bc c1 73 dc 36
       -0.008123789 0.018085063 -0.02012881 6.5699865e-06
0003e0 15 d4 85 30 25 51 a7 bb 17 ab 2d bd 33 8d 7a bd
       9.737301e-10 -0.0051061087 -0.042399492 -0.061169814
0003f0 1a a6 00 3c 46 e6 9a 3c a3 f8 51 3d 9d ec 21 3d
       0.007852102 0.018908631 0.05126251 0.039532293
